models/radar_drone_bird_cnn.pth (torch, 548483 bytes, 8 tensors)

features.0.weight f4 [16, 1, 3, 3]
0	0xbf088024	-0.5332053
1	0x3ee5e9bf	0.44904897
2	0x3e1cbcb3	0.15306358
3	0xbf0b2b9a	-0.54363406
4	0x3ed725cf	0.42021033
5	0x3e548336	0.20753178
6	0xbd63c49f	-0.055607434
7	0x3cd55f93	0.02604655
8	0xbd5d8fb2	-0.054092117
9	0x3ab25213	0.0013604782
10	0x3d5ce2f1	0.053927366
11	0xbe68c3d6	-0.22730955
12	0x3f2fb889	0.68640953
13	0x3d9a0b11	0.07521642
14	0xbedac3c7	-0.4272749
15	0xbf23e4fd	-0.64021283
16	0xbe9f67d1	-0.31133893
17	0x3ddbdd5c	0.1073558
18	0xbe219480	-0.15779305
19	0xbe8a3924	-0.2699672
20	0x3eb85228	0.3600018
21	0xbed27dcb	-0.41111597
22	0x3f06236f	0.5239782
23	0xbd0d5831	-0.034507934
24	0x3e95488b	0.29156908
25	0xbf02dccd	-0.51118165
26	0x3d97cbcb	0.07411917
27	0xbeef8e45	-0.4678823
28	0x3e80bf97	0.2514617
29	0x3f172657	0.59042877
30	0xbf28b394	-0.65899014
31	0x3e86258f	0.2620053
32	0x3f250932	0.64467156
33	0x3e09d91e	0.1346173
34	0x3d8ff028	0.07028228
35	0x3d9b4ad1	0.075826295
36	0xbe976348	-0.29567933
37	0xbe5d02c6	-0.21583089
38	0xbe476b2b	-0.19474475
39	0xbe70ff50	-0.23534894
40	0xbc2e2500	-0.010628939
41	0xbe9d1fcf	-0.3068833
42	0xbe011148	-0.12604249
43	0xbe90f8d6	-0.28314847
44	0x3e0e736e	0.1391122
45	0x3e1c3dff	0.15258025
46	0xbe98b7af	-0.2982764
47	0xbe6ff366	-0.23432693
48	0xbd519fea	-0.051177897
49	0x3ef1574b	0.47136912
50	0x3e35887b	0.17727844
51	0xbb4aac7f	-0.003092557
52	0xbe7623f8	-0.24037158
53	0xbae94e61	-0.0017799848
54	0x3e466df3	0.1937788
55	0xbec61f9b	-0.38695988
56	0x3e2dee66	0.16985473
57	0xbc35ea91	-0.011103288
58	0xbf105011	-0.5637217
59	0x3e939513	0.28824672
60	0x3dfd7b97	0.123770885
61	0x3f2013d7	0.62530273
62	0xbf2d82cf	-0.67777723
63	0x3e972e63	0.29527578
64	0x3eb1402d	0.34619275
65	0xbc348ed9	-0.011020386
66	0xbdfcd248	-0.123447955
67	0xbccc7210	-0.024956733
68	0xbe80811b	-0.250985
69	0x3e732c1a	0.23747292
70	0xbcbf3dd1	-0.023344906
71	0x3ec584de	0.38577932
72	0x3ef4075f	0.47661874
73	0xbf0abe71	-0.5419684
74	0x3d61f833	0.05516834
75	0xbec3e3e1	-0.38259795
76	0x3eba2546	0.36356562
77	0xbcc7af05	-0.024375448
78	0xbdbf9077	-0.09353726
79	0x3e75c809	0.24002089
80	0xbe071a80	-0.13193703
81	0x3efe8903	0.49713907
82	0x3d9754e1	0.07389236
83	0xbf07a3c8	-0.52984285
84	0x3ef4cff5	0.4781491
85	0x3db10ad1	0.08644641
86	0xbed1d7fd	-0.40985098
87	0x3e93e86a	0.28888255
88	0x3d8dd54c	0.06925449
89	0xbeddb763	-0.43303975
90	0xbec5e35c	-0.38650024
91	0x3d0d146c	0.034443304
92	0xbe780516	-0.2422069
93	0xbeff8e11	-0.49913076
94	0xbe565888	-0.2093221
95	0xbeda184d	-0.42596665
96	0xbef46de8	-0.47740102
97	0xbf36e277	-0.7143931
98	0xbf52b50a	-0.82307494
99	0x3d73b239	0.05949614
100	0x3d99d604	0.07511523
101	0x3bde624e	0.006786621
102	0x3f1640f5	0.58692867
103	0x3d16638c	0.03671603
104	0xbf269644	-0.6507304
105	0x3ec4c777	0.3843343
106	0x3dd99fe2	0.10626198
107	0xbea38e58	-0.31944537
108	0x3e922baa	0.28548938
109	0x3e843883	0.25824365
110	0x3e535f84	0.20641905
111	0xbee52536	-0.44754952
112	0xbebabe8c	-0.364735
113	0xbebdc0d2	-0.37061173
114	0xbd8342a5	-0.06409196
115	0xbd5b13e2	-0.05348576
116	0x3e7f18cc	0.24911803
117	0x3e97b5b2	0.2963081
118	0xbe2b5571	-0.16731812
119	0xbea61580	-0.32438278
120	0xbdd32120	-0.103090525
121	0x3c7706f5	0.015077342
122	0xbedb6d82	-0.42856985
123	0x3a8bac7a	0.001065626
124	0xbc235d08	-0.009970911
125	0xbddd9193	-0.10818782
126	0xbec8883a	-0.39166433
127	0xbe5700f7	-0.20996462
128	0xbea466e0	-0.32109737
129	0x3e5eae5a	0.21746197
130	0x3d5af6b1	0.05345792
131	0x3ea70aa1	0.32625297
132	0x3e0ca850	0.13736081
133	0x3e8a838a	0.2705348
134	0xbde4bc4d	-0.11168728
135	0xbdce9fc5	-0.10089067
136	0xbe9e1a50	-0.3087945
137	0x3e82080a	0.25396758
138	0x3ed695fb	0.419113
139	0xbea139b0	-0.31489325
140	0xbd76893d	-0.060189474
141	0x3e88b73f	0.26702306
142	0xbf06e982	-0.52700055
143	0x3ea3d39c	0.31997383

features.0.bias f4 [16]
0	0xbbd14469	-0.006386329
1	0x3d13d2ea	0.036089815
2	0xbc2dbc9f	-0.010604053
3	0xbe9cffb7	-0.30663845
4	0xbe62fb6e	-0.22166225
5	0xbe420f2a	-0.18951097
6	0x3c2a649e	0.010399966
7	0xbeb23e92	-0.34813362
8	0xbcde0065	-0.027099798
9	0xbc9de920	-0.019276202
10	0x3dcbdcb8	0.09954208
11	0xbdce6b3a	-0.100790456
12	0xbc116e7e	-0.008876441
13	0x3e0e2712	0.13882092
14	0xbe70aba6	-0.23502979
15	0xbca581e0	-0.02020353

features.3.weight f4 [32, 16, 3, 3]
0	0xbd86672f	-0.065626495
1	0x3f208cd2	0.62714875
2	0xbeb3d23d	-0.35121337
3	0xbd3bd751	-0.04585964
4	0x3ed08b80	0.4073143
5	0xbdd48b9f	-0.10378193
6	0xbb1e0ec0	-0.0024117678
7	0xbd4d3c92	-0.050106592
8	0x3ddae2f8	0.10687822
9	0xbe15a4b6	-0.14613613
10	0xbe1925dc	-0.14955848
11	0xbe955748	-0.29168153
12	0xbe810034	-0.25195467
13	0xbea1db40	-0.31612587
14	0xbe08d323	-0.13361792
15	0x3d318a99	0.043345068
16	0x3e9f39b3	0.3109871
17	0x3e7baa25	0.24576624
18	0xbb768d94	-0.0037621008
19	0x3dadfa26	0.08494978
20	0xbecabb3f	-0.39595982
21	0xbe30b470	-0.17256331
22	0xbd5a174d	-0.053244878
23	0xbe86a7f2	-0.26300007
24	0xbe360d47	-0.17778502
25	0xbeca0786	-0.39458865
26	0xbeda6889	-0.4265788
27	0x3e66d872	0.22543505
28	0x3f0544fa	0.52058375
29	0xbc9600dd	-0.018310959
30	0x3decc260	0.115605116
31	0x3ea79f65	0.32738796
32	0xbd70cb9c	-0.058787927
33	0x3df7924e	0.12088452
34	0xbdb818af	-0.08989083
35	0xbe35a697	-0.1773933
36	0xbb252156	-0.0025196872
37	0xbc233b96	-0.009962937
38	0xbceaa8b0	-0.02864489
39	0xbd59ada8	-0.053144127
40	0xbd6b41b0	-0.05743569
41	0xbd4a81a8	-0.049440056
42	0xbd491f30	-0.04910201
43	0xbbd7502b	-0.006570836
44	0xbd89bc2b	-0.06725343
45	0xbf216c3f	-0.63055795
46	0xbe02ce9c	-0.12774128
47	0xbe4df82d	-0.20114203
48	0xbeaae4cb	-0.3337768
49	0x3e10e48c	0.14149684
50	0xbcbb40ed	-0.022858107
51	0xbc6bc47b	-0.014390106
52	0xbd9e66bb	-0.07734438
53	0x3cb091b4	0.021553852
54	0xbd8e099e	-0.06935428
55	0x3db093dd	0.08621953
56	0xbef8b833	-0.48578033
57	0x3dad186d	0.084519245
58	0x3e26f13f	0.16302966
59	0x3cd2807c	0.025696032
60	0xbbeb9860	-0.0071897954
61	0xbe364b9c	-0.1780228
62	0xbe2e03bd	-0.16993614
63	0xbe348a5b	-0.17630903
64	0x3e85fd45	0.26169792
65	0x3e3e5e9e	0.18590781
66	0xbdad5783	-0.08463957
67	0x3e0087f7	0.12551866
68	0x3e91755a	0.28409845
69	0xbdb0a40f	-0.08625042
70	0xbdfcb41d	-0.123390414
71	0xbe91bb5f	-0.28463265
72	0x3e3f15cd	0.1866066
73	0x3e9445aa	0.289594
74	0x3e0a9676	0.13533959
75	0xbf01828f	-0.5058984
76	0xbe6cbd35	-0.23119052
77	0xbef360fb	-0.47534928
78	0x3e00139f	0.12507485
79	0xbf5cc84c	-0.8624313
80	0xbe839b7a	-0.25704557
81	0xbdeaae49	-0.114590235
82	0x3e5507d4	0.20803767
83	0xbe9d07a5	-0.30669895
84	0xbd93d49c	-0.072182864
85	0x3ccef7bd	0.025264615
86	0xbde93552	-0.11387123
87	0xbd7b990a	-0.061425246
88	0x3c0a25b5	0.008431842
89	0x3d2aa1b9	0.041658137
90	0x3d37675c	0.044776306
91	0xbf28b2ac	-0.6589763
92	0x3f13f1af	0.57790655
93	0x3da12fd0	0.07870448
94	0x3de0ed99	0.10982818
95	0x3ea9c193	0.33155498
96	0x3ef27e34	0.4736191
97	0x3e9c8203	0.3056794
98	0x3eb450fb	0.35218033
99	0xbe1cceb8	-0.15313232
100	0x3e10ad3f	0.14128588
101	0xbe2e4492	-0.17018345
102	0xbd231c73	-0.039822053
103	0xbe0360aa	-0.12829843
104	0xbe72d290	-0.23713136
105	0xbeb61315	-0.35561433
106	0xbeb3c29b	-0.3510941
107	0xbf0b9df7	-0.5453791
108	0xbda97d86	-0.08275895
109	0xbeffc3fa	-0.49954206
110	0xbed57bae	-0.41695923
111	0xbda6a6f6	-0.08137314
112	0x3c9b92bf	0.018990872
113	0x3d8c1a6e	0.068409786
114	0xbe30dbf0	-0.172714
115	0x3dd49e6e	0.103817806
116	0x3e605660	0.2190795
117	0x3aaff4a4	0.0013424349
118	0xbe3f89ce	-0.18704912
119	0xbe9b5fc9	-0.30346516
120	0xbca52dcb	-0.020163437
121	0xbbcea8a3	-0.006306724
122	0x3d6c992a	0.057763256
123	0xbc04e533	-0.008111286
124	0x3e1a5c61	0.15074302
125	0x3dbb71ed	0.09152589
126	0xbed6ffb7	-0.4199197
127	0xbe7e7bee	-0.24851963
128	0xbde00521	-0.10938478
129	0xbeb5abbf	-0.35482594
130	0xbe2e63fe	-0.17030331
131	0x3cb84cb0	0.022497505
132	0xbdcf91f4	-0.1013526
133	0x3d8e6427	0.06952696
134	0x3c870868	0.0164835
135	0x3d75003c	0.059814677
136	0x3d40fac4	0.04711415
137	0xbd52328d	-0.05131774
138	0x3d552971	0.052041475
139	0xbca9be70	-0.02072069
140	0xbe29ee13	-0.16594724
141	0x3dc5b648	0.09653908
142	0xbf354034	-0.7080109
143	0xbeb1357a	-0.34611112
144	0x3e4ed41e	0.20198104
145	0xbe5de1b5	-0.21668132
146	0xbe228f1f	-0.15874909
147	0x3ebe3631	0.3715072
148	0xbe109ba7	-0.14121877
149	0xbec55bf3	-0.38546714
150	0xbcac49ff	-0.021031378
151	0xbefbe48f	-0.49197814
152	0xbe94e0a5	-0.2907764
153	0x3b9fa0a9	0.004871447
154	0xbe45f8b5	-0.19333155
155	0x3df216f3	0.118207835
156	0xbc4d7975	-0.012541165
157	0xbe1545ed	-0.14577456
158	0xbcef625b	-0.029221704
159	0xbcc5a2db	-0.024125507
160	0x3decf059	0.1156928
161	0xbd956dc0	-0.07296324
162	0xbdc07508	-0.09397322
163	0xbcbb975c	-0.022899322
164	0xbe9a8423	-0.30178937
165	0x3e0fdec2	0.14049819
166	0xbec3a4c0	-0.38211632
167	0xbf1d8039	-0.6152378
168	0xbe38d30b	-0.18049257
169	0xbe8e331b	-0.27773365
170	0xbe5a68c2	-0.21329024
171	0x3dfdd69f	0.12394451
172	0xbd860f02	-0.06545831
173	0xbe8c3443	-0.27383623
174	0x3eaa24d4	0.33231223
175	0x3ab8eef8	0.0014109304
176	0xbecff322	-0.40615183
177	0x3e8368a9	0.25665787
178	0xbedff38e	-0.43740505
179	0xbe5ab33c	-0.21357435
180	0xbd991d9c	-0.07476351
181	0xbd29a8b0	-0.04142064
182	0x3d85a9e2	0.06526543
183	0xbcef9076	-0.029243689
184	0xbd482f06	-0.04887297
185	0xbda30e1b	-0.07961675
186	0xbbb870eb	-0.0056286952
187	0xbb84d740	-0.00405398
188	0x3d556406	0.052097343
189	0xbc0a4842	-0.008440079
190	0xbeacf06f	-0.33777186
191	0xbf253267	-0.6453003
192	0x3e312678	0.17299831
193	0xbd2cc265	-0.042177577
194	0xbec7a500	-0.38993073
195	0x3e4e6339	0.20155038
196	0x3e82b978	0.25532126
197	0x3d272bf7	0.040813413
198	0x3e3e7056	0.1859754
199	0xbe1b9a24	-0.15195519
200	0xbdbda342	-0.092596546
201	0xbea87893	-0.3290449
202	0xbd032ae8	-0.03202334
203	0xbdb672c9	-0.08908612
204	0x3dfc87d3	0.12330594
205	0x3c39dd78	0.011344306
206	0xbe15cd19	-0.1462902
207	0x3e48ea27	0.19620572
208	0x3d56148d	0.052265693
209	0xbd8ea205	-0.069644965
210	0x3e740b00	0.23832321
211	0x3d6d30db	0.05790792
212	0xbe13d2fe	-0.14435956
213	0x3a814b6e	0.0009864399
214	0xbd0cdaef	-0.03438848
215	0x3d0b619e	0.034028642
216	0x3ec291c0	0.38001823
217	0x3d63783b	0.055534583
218	0xbca98bb8	-0.020696506
219	0xbe4960e7	-0.19665872
220	0xbe71cd3e	-0.2361345
221	0xbe9e36f0	-0.3090129
222	0xbe28d660	-0.16488028
223	0x3ceeeadb	0.029164722
224	0xbe350f02	-0.17681506
225	0x3ec58746	0.38579768
226	0xbd8d8cb6	-0.06911604
227	0x3da16446	0.07880454
228	0x3e0dc51d	0.13844724
229	0x3db2512a	0.08706887
230	0xbc7ef772	-0.015561925
231	0xbd2f680b	-0.042823832
232	0x3d8d611f	0.0690329
233	0xbd9365fd	-0.07197187
234	0x3f4c9ec6	0.7992977
235	0xbd9da5ec	-0.07697663
236	0x3dd70a09	0.10499961
237	0xbc2977b5	-0.010343482
238	0xbe8e996f	-0.27851436
239	0xbf1d9e6e	-0.6156987
240	0x3eaa686a	0.33282787
241	0x3e6377fc	0.22213739
242	0x3de59f0c	0.112119764
243	0x3e692f6f	0.22772
244	0x3d86f8f0	0.0659045
245	0x3daa8863	0.08326795
246	0x3e1a92e8	0.15095103
247	0x3dc8e75d	0.09809754
248	0xbd90d461	-0.07071758
249	0xbe32ecb5	-0.17473109
250	0x3e148eac	0.1450755
251	0xbdfd34b2	-0.123635665
252	0x3ebed712	0.3727346
253	0x3ed6e75b	0.41973385
254	0x3f06229d	0.52396566
255	0xbdab952f	-0.08378064

features.3.bias f4 [32]
0	0x3c9af6d8	0.018916532
1	0x3c7dfdbb	0.015502389
2	0xbcebf6f9	-0.02880429
3	0x3d93f290	0.072239995
4	0xbdbe1762	-0.09281804
5	0xbcc9a801	-0.024616243
6	0x3d11767b	0.035513382
7	0xbbb8449e	-0.005623414
8	0xbdcc2724	-0.09968403
9	0xbd807f8c	-0.06274328
10	0xbd9a4b46	-0.075338885
11	0xbc5e87e1	-0.013582201
12	0xbe245934	-0.16049653
13	0xbd4dbedb	-0.050230842
14	0xbd33d268	-0.04390183
15	0xbe0a122a	-0.13483492
16	0xbdce6218	-0.10077304
17	0xbc7e2e06	-0.0155139025
18	0xbd5daf26	-0.054122113
19	0xbdb45664	-0.0880554
20	0x3c3840c0	0.011245906
21	0xbca359cb	-0.019940278
22	0xbd90bc86	-0.07067208
23	0x3e1b8ec2	0.15191177
24	0xbca9b1d2	-0.020714674
25	0xbdc64534	-0.09681168
26	0xbc0e1e70	-0.008674249
27	0x3c90e1b6	0.017685752
28	0xbd392dd7	-0.045209732
29	0xbb105f30	-0.0022029392
30	0x3d473175	0.04863115
31	0x3c705ac1	0.014670075

classifier.1.weight f4 [64, 2048]
0	0x3eaf5f9b	0.3425263
1	0x3e04efdd	0.12982126
2	0x3e34f70a	0.17672363
3	0x3e2dad2c	0.16960591
4	0x3da5a2af	0.0808767
5	0x3dc7a869	0.097489186
6	0x3cca978c	0.024730466
7	0xbd581a46	-0.05275943
8	0x3e015a3a	0.12632075
9	0xbeb28fa7	-0.34875223
10	0xbe552279	-0.20813932
11	0x3ddffc7d	0.1093683
12	0xbe1e116d	-0.15436335
13	0xbe04238c	-0.12904185
14	0x3cd41f18	0.025893733
15	0xbe89f377	-0.2694356
16	0xbe47b1a6	-0.19501361
17	0xbe9e20fe	-0.30884546
18	0xbd8075c4	-0.06272462
19	0x3e66259f	0.22475289
20	0x3d9d3fc7	0.0767818
21	0xbed1b954	-0.40961707
22	0x3e89622c	0.26832712
23	0x3ef968a9	0.48712662
24	0xbd0c6676	-0.034277402
25	0x3cca514e	0.024696972
26	0x3cc89135	0.024483303
27	0x3e84b35e	0.25918096
28	0x3e39f49e	0.1815972
29	0x3e03ca83	0.12870221
30	0x3e7f71f6	0.24945816
31	0x3dc68112	0.09692587
32	0x3d3b059d	0.04565965
33	0x3e84b48e	0.25919002
34	0x3e23f654	0.16011935
35	0x3ea93f87	0.3305628
36	0xbd86f5c4	-0.06589845
37	0xbe20d00c	-0.15704364
38	0x3da95712	0.082685605
39	0xbe256d7c	-0.16155046
40	0x3edc9d52	0.43088776
41	0x3d0dcf2f	0.034621414
42	0x3dc26c87	0.09493356
43	0xbe0e8651	-0.13918425
44	0xbd219659	-0.039450023
45	0x3de8032a	0.113287285
46	0x3d7b817a	0.061402775
47	0xbddd42db	-0.10803767
48	0x3dac6338	0.08417362
49	0xbe67fee8	-0.22655833
50	0xbdc87e42	-0.09789707
51	0xbe818886	-0.25299472
52	0xbdc913cd	-0.0981823
53	0xbe452b39	-0.1925477
54	0xbe80f353	-0.25185642
55	0xbe66ab24	-0.22526222
56	0xbe48829d	-0.19581075
57	0xbe3a5f0a	-0.18200317
58	0xbe4c9b4c	-0.19981116
59	0xbe16660b	-0.14687364
60	0x3d623222	0.05522359
61	0xbc4590d8	-0.012058459
62	0x3b81c05c	0.0039596986
63	0xbc333683	-0.01093829
64	0x3e93bfd7	0.288573
65	0x3e3caed2	0.18426064
66	0x3da58fc7	0.08084064
67	0xbe6de80c	-0.2323305
68	0xbdf14cd3	-0.11782231
69	0xbe82aee6	-0.25524062
70	0x3d213f6e	0.039367132
71	0xbe37aa2f	-0.17936014
72	0xbdeeec7f	-0.11666202
73	0x3dbae404	0.09125522
74	0xbdb2320b	-0.08700951
75	0xbdd206a3	-0.10255172
76	0xbeab576e	-0.3346514
77	0xbecbac80	-0.39780045
78	0xbc10f4ac	-0.008847397
79	0x3e301730	0.17196345
80	0x3e52c5cc	0.20583266
81	0xbd7a01ad	-0.061036754
82	0x3dd75b69	0.10515482
83	0xbe783311	-0.2423823
84	0x3e9dd0cf	0.3082337
85	0xbd83941f	-0.06424736
86	0x3e012d5b	0.12614958
87	0xbe2018d5	-0.15634473
88	0x3dda15fe	0.10648726
89	0x3cf02b36	0.02931748
90	0x3d8deb58	0.06929654
91	0xbc3c1793	-0.01148023
92	0x3e6b10fe	0.22955701
93	0x3e148220	0.14502764
94	0x3e846d1c	0.25864494
95	0xbde2fd15	-0.11083428
96	0x3e222601	0.1583481
97	0x3e52bd0b	0.20579927
98	0x3e30aff2	0.17254618
99	0xbd15addb	-0.036542755
100	0x3d5b99cb	0.053613465
101	0xbcb634ab	-0.02224191
102	0xbdd64dae	-0.10464035
103	0xbe04ac2c	-0.12956303
104	0xbdccf956	-0.100084946
105	0x3e2acb5b	0.16679136
106	0x3c32b2ba	0.01090687
107	0x3dbebb27	0.0931304
108	0x3e040bf6	0.12895188
109	0x3e74af24	0.23894936
110	0x3c5c865d	0.013459769
111	0xbeac88cb	-0.33698115
112	0x3e0c8d2e	0.13725731
113	0x3df3cb46	0.11904006
114	0xbe5daad2	-0.21647194
115	0x3eb4f208	0.35340905
116	0x3e074a16	0.13211855
117	0x3f15f331	0.58574206
118	0x3e1e8d3b	0.15483563
119	0x3f11bd6f	0.5692968
120	0xbe31b3d2	-0.17353752
121	0x3e468d0e	0.19389746
122	0x3e400a76	0.1875399
123	0x3eadbbbc	0.33932292
124	0x3ed4e8b9	0.41583803
125	0x3ed1cea1	0.40977958
126	0xbca65ec4	-0.02030886
127	0xbe009314	-0.12556106
128	0x39c64f54	0.00037824607
129	0xbdab1408	-0.0835343
130	0xbe72f5e3	-0.23726611
131	0xbed1fc77	-0.41012928
132	0xbe0c91cb	-0.1372749
133	0xbec30af7	-0.38094303
134	0xbd890d03	-0.06691935
135	0xbe7a9eb8	-0.24474609
136	0xbe71dd4d	-0.23619576
137	0x3d7a9b7d	0.06118344
138	0xbe7fae1d	-0.24968763
139	0xbe2433f3	-0.16035442
140	0xbf0f708e	-0.5603112
141	0xbe4c2adf	-0.19938229
142	0x3e030368	0.12794268
143	0xbd161c86	-0.036648296
144	0xbe6aa6ab	-0.22915141
145	0x3e79af80	0.24383354
146	0xbcd38b82	-0.025823358
147	0xbeb23d4b	-0.34812388
148	0x3e7797d5	0.24179013
149	0xbe29ead2	-0.16593483
150	0x3ed85b00	0.42256927
151	0x3e1a3425	0.15058954
152	0x3de79268	0.11307222
153	0xbe8888c2	-0.26666838
154	0x3e10caa5	0.14139803
155	0x3e1357b0	0.14388919
156	0x3dfec505	0.12439922
157	0xbd456695	-0.048193533
158	0x3ba527fe	0.005040168
159	0x3de6fbf0	0.11278522
160	0x3e7a173f	0.2442293
161	0x3e827b09	0.25484493
162	0xbe045aa1	-0.12925197
163	0x3d819dec	0.06328949
164	0xbd47b0a0	-0.048752427
165	0x3dfc21a7	0.12311106
166	0x3d3c0505	0.045903224
167	0xbd432074	-0.04763837
168	0x3b776559	0.0037749617
169	0x3d615c7f	0.05501985
170	0x3a6037c8	0.0008553234
171	0x3d88a8ca	0.06672819
172	0xbbd0b5b6	-0.006369318
173	0xbe16ceca	-0.14727321
174	0xbe8fbed4	-0.28075278
175	0xbda2ec73	-0.07955255
176	0x3ee082dc	0.43849838
177	0x3e34d63b	0.17659847
178	0x3e8b6eac	0.27232873
179	0xbd206269	-0.03915635
180	0x3dd0a2e2	0.101873174
181	0xbdbfbcaa	-0.09362157
182	0x3e0be992	0.13663319
183	0xbd314d5a	-0.04328666
184	0xbe493964	-0.19650799
185	0xbeabadef	-0.33531138
186	0xbcce6a96	-0.025197309
187	0xbe2e7822	-0.17038015
188	0x3e595b58	0.21226251
189	0x3e8cb464	0.27481377
190	0x3e26f6e1	0.16305114
191	0xbd30d51e	-0.043171994
192	0x3db915c5	0.09037355
193	0x3ec36a5e	0.3816709
194	0x3eb05ac6	0.34444255
195	0x3ee334d7	0.4437625
196	0x3ea94e73	0.33067665
197	0x3de791a3	0.11307075
198	0x3e339fc8	0.1754142
199	0x3eed523c	0.46351802
200	0x3d5f18e7	0.054467108
201	0x3e5dd870	0.21664596
202	0x3e0d89f0	0.1382215
203	0x3dd7c65f	0.10535883
204	0x3e22d11e	0.15900084
205	0x3eb67543	0.3563634
206	0x3e8b0182	0.27149588
207	0x3e083192	0.1330016
208	0x3d523111	0.051316325
209	0xbdd933ae	-0.1060556
210	0x3d7e53dd	0.062091697
211	0xbbcd1ea3	-0.0062597557
212	0x3d247914	0.04015453
213	0xbda32680	-0.07966328
214	0xbd02dd52	-0.03194935
215	0xbe282b95	-0.16422875
216	0xbec8d64f	-0.39226004
217	0xbe33a9bd	-0.17545219
218	0x3da4312d	0.08017192
219	0xbed63efb	-0.41844925
220	0xbefc1b90	-0.4923978
221	0xbec62618	-0.38700938
222	0xbd178620	-0.036993146
223	0xbe9d8d6a	-0.30771953
224	0xbe87244c	-0.2639488
225	0xbeb5d671	-0.35515168
226	0xbdf87e3e	-0.12133454
227	0xbe96a31d	-0.2942132
228	0xbee6085a	-0.44928247
229	0xbe368519	-0.1782421
230	0xbe598c0e	-0.21244833
231	0xbd594d1e	-0.05305206
232	0xbc3dc4fe	-0.011582611
233	0xbe89ed6c	-0.2693895
234	0xbdcaf296	-0.09909551
235	0x3d305c5b	0.043056827
236	0xbd0dff82	-0.0346675
237	0xbe093716	-0.1339992
238	0x3c0f49c9	0.008745619
239	0xbc164a26	-0.009172952
240	0xbddbef5d	-0.10739014
241	0x3defa207	0.11700826
242	0x3dfdc5b9	0.12391228
243	0x3e100685	0.14064987
244	0x3df71b54	0.12065759
245	0x3d248341	0.040164236
246	0x3def2f40	0.11678934
247	0x3e58f566	0.21187362
248	0x3e384a1f	0.17997025
249	0x3dee75c7	0.11643558
250	0x3d6d31cd	0.05790882
251	0x3e2e651e	0.1703076
252	0x3e3b5c65	0.18296964
253	0x3e411952	0.18857315
254	0x3e099ff9	0.13439931
255	0x3e440be3	0.1914516

classifier.1.bias f4 [64]
0	0xbd054773	-0.032538842
1	0xbe0e7ff6	-0.13916
2	0xbc79813d	-0.015228567
3	0x3c5795b7	0.013158253
4	0xbe047162	-0.12933877
5	0xbc415a75	-0.011801352
6	0xbc1aad62	-0.009440752
7	0x3be4f911	0.006987699
8	0xbca4e944	-0.020130761
9	0xbd9f7a3a	-0.07786985
10	0xbc1d7fd7	-0.009612999
11	0x3c268d70	0.010165557
12	0xbd1ca8ac	-0.038246796
13	0xbca48f9a	-0.020088006
14	0xbcc6f0d2	-0.024284754
15	0xbdbe9912	-0.093065396
16	0xbda90f4a	-0.08254869
17	0xbc18056b	-0.0092786355
18	0xbde066f5	-0.109571375
19	0xbd570d61	-0.052502993
20	0x3eb5e67b	0.35527405
21	0xbcac699a	-0.021046448
22	0xbdfa00ed	-0.12207208
23	0x3c132c81	0.0089827785
24	0x3c0bf390	0.008541957
25	0x3be2050b	0.006897574
26	0xbc066eea	-0.008205155
27	0xbc8da20c	-0.017289184
28	0xbc667efd	-0.014068362
29	0xbe04bcc2	-0.1296263
30	0xbb395c2b	-0.0028283696
31	0xbde65e97	-0.1124851
32	0xbd3de2a3	-0.046358716
33	0xbb99c9db	-0.0046932525
34	0x3b49f3e7	0.0030815543
35	0xbcfe61c3	-0.031052476
36	0x3c596410	0.013268486
37	0xbdd6ddbc	-0.10491511
38	0xbdae12ee	-0.08499704
39	0xbdaaa309	-0.08331878
40	0xbc1e1c65	-0.0096503245
41	0xbb978095	-0.0046234825
42	0x3c23f0ae	0.010006113
43	0xbe1e03e8	-0.15431178
44	0xbe01f667	-0.12691651
45	0x3bd0ce06	0.006372216
46	0xbd98eec3	-0.07467415
47	0xbd3b8b96	-0.045787416
48	0xbcb4f45d	-0.022089178
49	0xbd7fa8a9	-0.062416706
50	0x3bacd66e	0.0052745854
51	0xbdba8d9e	-0.091090426
52	0xbd3474a7	-0.04405656
53	0xbdba5b69	-0.09099466
54	0xbcb1a45d	-0.02168482
55	0xbc019102	-0.007908108
56	0xbe0c85b2	-0.13722876
57	0xbc633d98	-0.013869666
58	0xbc29c54b	-0.01036198
59	0xbcc949f8	-0.024571404
60	0xbde86672	-0.11347665
61	0xbdbe148e	-0.09281264
62	0xbd3fc107	-0.046814945
63	0xbcc0b629	-0.02352436

classifier.4.weight f4 [2, 64]
0	0xbf08f2b5	-0.5349534
1	0xbedbc6f4	-0.42925227
2	0x3d768b8b	0.060191672
3	0x3d958852	0.07301392
4	0xbf2d74ca	-0.6775633
5	0xbf4eb78e	-0.8074883
6	0x3d502929	0.050820503
7	0xbd8ae2a0	-0.067815065
8	0xbccdaaf9	-0.02510594
9	0xbe79f5ae	-0.24410126
10	0x3ce5285f	0.027973352
11	0xbdc61599	-0.09672088
12	0x3d4f9eb7	0.05068847
13	0xbdcdcd6c	-0.10048947
14	0x3da0fb77	0.07860463
15	0xbeff80e4	-0.49903023
16	0xbf5ccc4b	-0.86249226
17	0x3c9313d6	0.017953794
18	0xbf204290	-0.62601566
19	0xbf2e876c	-0.6817539
20	0x3f841fa4	1.0322156
21	0x3dcfd3a3	0.101477884
22	0xbf64da9e	-0.89396083
23	0x3d52c990	0.051461756
24	0x3c56494a	0.013078997
25	0xbf658b8b	-0.8966605
26	0x3d10bab8	0.03533432
27	0x3c9883a7	0.018617464
28	0x3dd12382	0.10211851
29	0xbe8ece2f	-0.2789168
30	0xbd5fb85e	-0.054619186
31	0xbe863f23	-0.26220044
32	0xbbe3e01e	-0.006954207
33	0xbdd890c2	-0.10574485
34	0x3db4e700	0.08833122
35	0x3c03d8e1	0.008047313
36	0xbd1e1172	-0.038590856
37	0xbf02976c	-0.510123
38	0xbebde62b	-0.37089667
39	0xbf131f1c	-0.57469344
40	0x3dd72a7c	0.1050615
41	0x3dee8674	0.11646739
42	0x3d528906	0.051400207
43	0xbeada8c5	-0.33917823
44	0xbf34bace	-0.7059754
45	0x3dca2103	0.09869578
46	0xbe1bd9bd	-0.1521978
47	0xbf19aa8f	-0.60025877
48	0xbf57f87d	-0.8436354
49	0xbf06047e	-0.52350605
50	0x3d53a6ba	0.051672675
51	0x3da21baa	0.07915433
52	0x3c8f99d2	0.017529402
53	0xbefa76f3	-0.48918876
54	0x3be2fb7b	0.0069269515
55	0xbd4d29b9	-0.050088618
56	0xbf33a9fc	-0.7018125
57	0xbdc7c18b	-0.09753712
58	0x3c467bca	0.012114475
59	0x3ba297a1	0.004961923
60	0xbf0fd391	-0.561822
61	0xbe902439	-0.28152636
62	0x3d1c186e	0.038109235
63	0x3dd86224	0.10565594
64	0x3f240b4a	0.64079726
65	0x3ebe59c7	0.3717787
66	0x3d83e9fb	0.064411126
67	0x3ab9d983	0.0014179203
68	0x3f2a180a	0.6644293
69	0x3f4362c8	0.76322603
70	0xbd9c30ab	-0.0762647
71	0xbdd646e2	-0.104627386
72	0xbd871e26	-0.06597547
73	0x3e494d45	0.19658382
74	0xbc295350	-0.010334805
75	0x3d1f208a	0.03884939
76	0x3d3f93ab	0.046771687
77	0xbdc17194	-0.094454914
78	0x3dc2246b	0.094796024
79	0x3f0700c1	0.52735525
80	0x3f76b8f4	0.96375966
81	0xbd4653af	-0.04841965
82	0x3f28bfc8	0.65917635
83	0x3f309a3c	0.6898534
84	0xbf788187	-0.97072643
85	0xbcfdddea	-0.030989606
86	0x3f408318	0.75200033
87	0xbdb8772d	-0.09007106
88	0x3b99f647	0.004698548
89	0x3f722895	0.94593173
90	0xbd88c099	-0.0667736
91	0xbd116693	-0.035498213
92	0xbdb4263e	-0.087963566
93	0x3e2dc99d	0.1697144
94	0xbd3e72e6	-0.046496294
95	0x3ec57322	0.38564402
96	0x3cf071f5	0.029351214
97	0xbd176d4b	-0.036969464
98	0xbd470ae2	-0.048594363
99	0xbcab8bea	-0.02094074
100	0xbd8dcbc6	-0.06923632
101	0x3eed5bdd	0.4635915
102	0x3e874ed9	0.26427343
103	0x3f2e25c5	0.6802638
104	0xbc3654e1	-0.011128635
105	0x3c7262c0	0.014794052
106	0xbd08dbda	-0.03341279
107	0x3ec56e76	0.38560838
108	0x3f313fc7	0.6923794
109	0x3c0a660e	0.008447183
110	0x3e7e592d	0.24838705
111	0x3f396747	0.72423214
112	0x3f476e01	0.7790223
113	0x3f1ff67b	0.62485474
114	0xbda75204	-0.0816994
115	0x3d92695a	0.071490005
116	0x3d446a14	0.047952726
117	0x3f25a712	0.64708054
118	0xbd939416	-0.072059795
119	0x3d6f8d19	0.05848417
120	0x3f1bc2ce	0.60844123
121	0xbdc0db7b	-0.094168626
122	0xbdc13617	-0.09434145
123	0xbdbca287	-0.09210687
124	0x3f027602	0.50961316
125	0x3e4c4767	0.19949113
126	0x3ce78f1d	0.028266484
127	0xbdac8c2c	-0.08425173

classifier.4.bias f4 [2]
0	0x3fae18d4	1.3601327
1	0xbfa6abb5	-1.3021151
