models/radar_model_scripted.pt (torch, 529828 bytes, 20 tensors)

weight f4 [16, 1, 3, 3]
-0.63441724 0.1822249 0.31087592 -0.23600657 0.21651706 0.3323098 -0.3232936 -0.10111518
-0.10234272 -0.27511042 -0.32361513 0.6316019 0.025111161 0.09577522 -0.42158166 -0.05676615
-0.095203765 -0.119726986 0.51542926 0.033046745 -0.560024 0.264183 -0.08391761 0.03768514
-0.1342523 -0.3552564 -0.42717558 -0.0032262744 -0.54063225 -0.19543102 0.49253452 0.037272345
-0.1269191 0.42208382 -0.2399708 -0.2708168 -0.19453904 -0.5812483 0.21123217 -0.30808127
-0.08128796 -0.10245697 0.360428 0.4010236 -0.25061467 -0.22292612 -0.51076263 0.085738085
0.25349295 0.5157243 -0.09826079 -0.19203942 -0.22703995 -0.4196914 -0.1783429 0.4987699
0.24043992 -0.53711045 0.07630856 -0.010948359 -0.0037208665 -0.5297926 -0.30490953 -0.11100701
-0.30428383 -0.3598115 0.33616632 -0.08032853 -0.2843455 0.4777849 0.032379612 -0.22123145
-0.0831196 0.010541257 -0.4253459 0.055750422 -0.44301635 0.49821007 -0.10771445 0.37448552
-0.2216333 0.07556823 0.02825308 -0.43404278 -0.09595488 -0.1362405 0.70101553 0.08857608
0.06527771 -0.5129441 0.0035370386 0.16371976 0.23568474 -1.021163 -0.86017406 -0.82647544
0.27812234 0.019935079 0.030918527 0.6234015 0.0424259 -0.5689575 -0.16111602 0.2703516
0.031318 -0.5421029 -0.12988514 0.24621105 -0.22102647 -0.48213634 -0.041600764 0.12073317
-0.07304704 0.20830217 -0.0142834475 0.48362193 -0.6023444 0.08885476 -0.21028955 -0.4115905
-0.1988981 0.08241014 0.4244363 -0.52805924 0.21905027 0.28230536 0.3196019 -0.18051553
-0.22358023 -0.6381418 0.29997686 -0.2817794 0.42891437 -0.2905616 0.16926138 0.32331744
0.48394907 -0.03890761 -0.13144556 0.05646791 -0.15671274 0.51140356 0.292398 0.26654354
00000000: 2b69 22bf 2a99 3a3e 212b 9f3e b5ab 71be
00000010: a6b6 5d3e 8324 aa3e bd86 a5be 7a15 cfbd
00000020: 0f99 d1bd 46db 8cbe e2b0 a5be aab0 213f
00000030: ecb5 cd3c cc25 c43d 8dd9 d7be 9f83 68bd
00000040: 31fa c2bd 6c33 f5bd 2cf3 033f 065c 073d
00000050: bc5d 0fbf ff42 873e ffdc abbd bc5b 1a3d
00000060: 6f79 09be 2be4 b5be c2b6 dabe e76f 53bb
00000070: e066 0abf 121f 48be 7c2d fc3e e3aa 183d
00000080: 15f7 01be 5f1b d83e e8ba 75be 80a8 8abe
00000090: 3e35 47be b0cc 14bf 3f4d 583e d4bc 9dbe
000000a0: 4d7a a6bd f6d4 d1bd 058a b83e f752 cd3e
000000b0: 9150 80be bf46 64be 57c1 02bf 7397 af3d
000000c0: d4c9 813e 8206 043f f43c c9bd fba5 44be
000000d0: 297d 68be cbe1 d6be 859f 36be c55e ff3e
000000e0: e235 763e 1280 09bf aa47 9c3d bf60 33bc
000000f0: c8d9 73bb 7da0 07bf 1a1d 9cbe a557 e3bd
00000100: 17cb 9bbe 3739 b8be fe1d ac3e 4983 a4bd
00000110: bc95 91be 39a0 f43e 7ca0 043d 7f8a 62be
00000120: 9c3a aabd 3db5 2c3c f0c6 d9be 8e5a 643d
00000130: 0ad3 e2be 6415 ff3e 6599 dcbd 91bc bf3e
00000140: d7f3 62be 84c3 9a3d 0173 e73c db3a debe
00000150: fe83 c4bd a182 0bbe c175 333f 6067 b53d
00000160: 52b0 853d 4e50 03bf a9cd 673b 27a6 273e
00000170: 5757 713e 78b5 82bf 5e34 5cbf e593 53bf
00000180: 0d66 8e3e e44e a33c da48 fd3c 3e97 1f3f
00000190: c8c6 2d3d 33a7 11bf 99fb 24be 866b 8a3e
000001a0: 4e47 003d 41c7 0abf 9c00 05be c01e 7c3e
000001b0: c354 62be 93da f6be 9065 2abd f442 f73d
000001c0: b099 95bd 2a4d 553e 1f05 6abc 4b9d f73e
000001d0: 3e33 1abf 7cf9 b53d 2556 57be fdbb d2be
000001e0: f2ab 4bbe a6c6 a83d b74f d93e e42e 07bf
000001f0: b74e 603e 548a 903e dca2 a33e 10d9 38be
00000200: 37f2 64be 435d 23bf 9196 993e 6445 90be
00000210: aa9a db3e 7dc4 94be db52 2d3e dd89 a53e
00000220: 2cc8 f73e 965d 1fbd aa99 06be e54a 673d
00000230: 4e79 20be 58eb 023f 31b5 953e 6578 883e

bias f4 [16]
-0.3650685 0.38072562 -0.23830086 0.35724813 -0.49776626 0.34016827 0.2523302 0.2886408
0.13848928 0.24789222 -0.01856071 0.5418656 0.56437063 -0.12154532 -0.5007056 0.5167285
00000000: 42ea babe 78ee c23e 2405 74be 3ae9 b63e
00000010: 38db febe 892a ae3e 6d31 813e bac8 933e
00000020: 22d0 0d3e 75d7 7d3e a10c 98bc b4b7 0a3f
00000030: 987a 103f c1ec f8bd 3e2e 00bf 5248 043f

weight f4 [16]
1.0253669 1.1071484 1.6700376 0.9804926 1.276741 1.1383914 0.80951697 0.63378185
0.78255457 0.9383543 1.086042 1.0179263 1.1760899 1.1621952 0.95732236 0.95110697
00000000: 393f 833f 0ab7 8d3f cbc3 d53f 9001 7b3f
00000010: 406c a33f cfb6 913f 813c 4f3f 873f 223f
00000020: 7f55 483f fd37 703f 6d03 8b3f 694b 823f
00000030: 1d8a 963f d0c2 943f 1413 753f bf7b 733f

bias f4 [16]
-0.016941154 -0.28806764 -0.0027941437 -0.12802203 -0.5602369 -0.027988588 -0.37319055 -0.59355175
-0.32254457 -0.24981251 -0.045617055 -0.31478256 -0.27974853 -0.22252361 -0.30207992 -0.6990658
00000000: 2dc8 8abc 9a7d 93be f41d 37bb 3518 03be
00000010: af6b 0fbf 5348 e5bc d512 bfbe 02f3 17bf
00000020: 9024 a5be dace 7fbe f3d8 3abd 2e2b a1be
00000030: 333b 8fbe 3bdd 63be 38aa 9abe faf5 32bf

running_mean f4 [16]
-0.41267803 0.30124152 -0.33752546 0.30169606 -0.5798238 0.23524198 0.14068088 0.21748686
0.09409261 0.2214638 -0.33297974 0.5133476 0.48164868 -0.15419112 -0.5619656 0.73883975
00000000: 894a d3be 543c 9a3e 23d0 acbe e877 9a3e
00000010: 556f 14bf 46e3 703e a60e 103e e0b4 5e3e
00000020: a0b3 c03d 68c7 623e 527c aabe c06a 033f
00000030: a89a f63e 47e4 1dbe fadc 0fbf 9a24 3d3f

running_var f4 [16]
0.008757373 0.009120491 0.02586289 0.015147063 0.031849403 0.014733734 0.05153796 0.028093852
0.008337499 0.0042934106 0.17446017 0.0088802725 0.01470522 0.009234004 0.012266553 0.04059893
00000000: 167b 0f3c 1d6e 153c 69de d33c 632b 783c
00000010: 8574 023d c265 713c 7819 533d 1425 e63c
00000020: 019a 083c bdaf 8c3b b0a5 323e 907e 113c
00000030: 2aee 703c 384a 173c a7f9 483c 104b 263d

weight f4 [32, 16, 3, 3]
-0.4014838 -0.23663156 -0.5180705 -0.3814341 -0.58365744 -0.3863163 -0.07179325 -0.08856562
-0.13644105 0.3232327 -0.21322271 -0.20417064 -0.3151131 -0.22043476 -0.18853244 -0.31526032
0.066097185 -0.47604215 0.20013508 0.45589712 -0.046642516 -0.004384149 0.11316059 0.12201934
0.33830726 0.42074397 0.29218835 -0.0562334 0.31510198 -0.11932941 -0.009806789 0.05467787
-0.3196115 0.09327472 0.2326588 -0.05044267 -0.17045717 -0.16210395 -0.24208426 -0.29409778
-0.21082668 -0.025721725 -0.98704916 -0.903111 -0.67117876 -0.20353308 -0.06366079 -0.08420983
-0.2549287 -0.08605885 -0.11072689 -0.10664082 0.058358632 0.034626022 -0.1380843 -0.24609503
-0.4322989 -0.18323168 -0.2682991 -0.4643668 0.20147593 -0.030661719 -0.22634852 0.21756867
0.31297395 -0.08071019 0.0643001 0.1255014 0.05794592 -0.17107268 0.08486205 -0.2303418
0.03929987 -0.38572112 -0.16098398 0.066155605 -0.12363861 0.041867103 -0.37949237 -0.38504454
-0.460474 -0.06918593 -0.1679879 -0.2818337 0.09102441 -0.3078248 -0.51230216 -0.059521344
0.011944077 -0.122859925 -0.0015569751 0.19911562 0.11743773 0.028181469 0.036744446 -0.06597352
-0.0054443115 0.19350594 0.12462659 -0.29492632 -0.48665187 -0.84026295 0.023538642 -0.05834339
-0.32174826 0.10656462 0.243345 0.0856037 0.035141096 0.21133684 -0.04434876 -0.39270672
-0.2052722 -0.44890067 0.25496334 0.11083848 0.01096881 -0.20400402 -0.6908853 -0.10969035
-0.44504845 -0.059242662 -0.058189537 -0.6721426 -0.24596918 0.21788658 0.009826517 0.023228956
-0.079386994 -0.096307054 -0.15439428 -0.17326252 -0.18133754 -0.22772269 -0.37529492 -0.16535257
-0.71695274 -0.9088144 -0.3374605 -0.30364013 -0.32812685 -0.33756155 -0.60726285 -0.34648293
-0.106172435 -0.5795119 -0.5231779 -0.38489175 -0.51839787 -0.42795217 -0.33124626 -0.54734033
-0.43935964 -0.13355152 -0.05705925 -0.041322537 -0.42664903 -0.30003634 -0.29727393 -0.11921488
-0.28402263 -0.35571903 0.13853346 0.4046106 0.16281226 -0.08423516 0.64373636 0.3971224
-0.0497155 0.5280399 0.4955122 -0.053284135 0.5256508 0.29871458 -0.13671307 0.29363847
0.43870503 0.2237069 0.24779503 0.14489816 0.7256385 0.32884476 0.06402863 0.54040104
0.3032532 0.29732606 -0.32918 -0.19052225 -0.2844244 -0.08816341 -0.08285 0.06997862
-0.18238905 -0.38867617 0.0952968 -0.36406708 -0.36455816 -0.044782616 0.2565019 0.02945922
-0.12993443 0.32199535 0.019422986 -0.21384065 0.27763534 -0.010796667 -0.20716418 0.16005188
0.42215443 0.22088388 0.36944222 0.4847172 0.39757514 0.3660163 -0.006336087 0.23517062
-0.10072057 -0.010103401 -0.017623436 0.109383576 0.24196069 0.15837613 0.17920314 0.19834375
-0.13063656 -0.015613191 -0.120884955 -0.4533079 0.018958665 0.08799431 0.13154827 0.017958462
-0.01418053 -0.43137705 0.2781566 0.21221815 0.20286158 0.080885716 0.03276965 0.06005711
-0.049505677 -0.0028962789 -0.03986543 0.014762228 0.15239017 0.06447111 0.26966006 0.2348159
0.23262759 0.2591466 0.14704652 0.24553765 0.25544566 0.37476218 0.19539985 0.1386734
00000000: 498f cdbe 8b4f 72be 45a0 04bf 554b c3be
00000010: 936a 15bf 40cb c5be 5708 93bd e461 b5bd
00000020: 34b7 0bbe c27e a53e 0e57 5abe 1c12 51be
00000030: 8156 a1be a6b9 61be a60e 41be cd69 a1be
00000040: f65d 873d ccbb f3be 36f0 4c3e 596b e93e
00000050: 390c 3fbd e8a8 8fbb bdc0 e73d 47e5 f93d
00000060: 9c36 ad3e c16b d73e b699 953e fe54 66bd
00000070: 0c55 a13e fa62 f4bd a8ac 20bc e7f5 5f3d
00000080: 1ea4 a3be d106 bf3d 1c3e 6e3e f99c 4ebd
00000090: 538c 2ebe 94fe 25be f0e4 77be fc93 96be
000000a0: f3e2 57be 5eb6 d2bc 41af 7cbf 4832 67bf
000000b0: 5fd2 2bbf fa6a 50be 9760 82bd 3476 acbd
000000c0: 0486 82be 9f3f b0bd c8c4 e2bd 8166 dabd
000000d0: 7609 6f3d 04d4 0d3d f965 0dbe 5600 7cbe
000000e0: 4856 ddbe 16a1 3bbe 805e 89be 7cc1 edbe
000000f0: b54f 4e3e 492e fbbc e8c7 67be 52ca 5e3e
00000100: 1f3e a03e 624b a5bd c5af 833d 7083 003e
00000110: b358 6d3d ad2d 2fbe 28cc ad3d b9de 6bbe
00000120: e7f8 203d 3d7d c5be fcd8 24be 977c 873d
00000130: 3d36 fdbd d77c 2b3d d34c c2be 8f24 c5be
00000140: 40c3 ebbe 5ab1 8dbd 0505 2cbe 824c 90be
00000150: 026b ba3d 369b 9dbe 3c26 03bf a7cc 73bd
00000160: 17b1 433c fc9d fbbd 6a13 ccba f7e4 4b3e
00000170: 3183 f03d d3dc e63c 5881 163d 201d 87bd
00000180: 3266 b2bb 6c26 463e 3a3c ff3d 9500 97be
00000190: 6f2a f9be 791b 57bf 1cd4 c03c 7af9 6ebd
000001a0: 30bc a4be 8d3e da3d 6f2f 793e fe50 af3d
000001b0: 1cf0 0f3d af68 583e 0ca7 35bd db10 c9be
000001c0: e032 52be 4fd6 e5be 8e8a 823e 49ff e23d
000001d0: 86b6 333c 6ee6 50be dcdd 30bf 56a5 e0bd
000001e0: 64dd e3be 6fa8 72bd 2758 6ebd 8a11 2cbf
000001f0: 58df 7bbe a91d 5f3e 66ff 203c a74a be3c
00000200: a695 a2bd a23c c5bd 8919 1ebe bb6b 31be
00000210: 8cb0 39be 2330 69be a826 c0be 2f52 29be
00000220: 378a 37bf 0fa8 68bf 9fc7 acbe b876 9bbe
00000230: 3e00 a8be ded4 acbe 9475 1bbf 3666 b1be
00000240: ef70 d9bd e45a 14bf fdee 05bf 8810 c5be
00000250: b9b5 04bf 8c1c dbbe 1c99 a9be 7f1e 0cbf
00000260: bff3 e0be bbc1 08be f6b6 69bd d241 29bd
00000270: be71 dabe 5d9e 99be 4a34 98be ee26 f4bd
00000280: 6a6b 91be ce20 b6be b7db 0d3e 1f29 cf3e
00000290: 42b8 263e 7c83 acbd e8cb 243f a153 cb3e
000002a0: 7ba2 4bbd 9f2d 073f c6b3 fd3e 7740 5abd
000002b0: 0d91 063f 1ef1 983e 83fe 0bbe c857 963e
000002c0: f29d e03e 6c13 653e fbbd 7d3e 2f60 143e
000002d0: 72c3 393f 575e a83e 7121 833d b957 0a3f
000002e0: 0144 9b3e 1f3b 983e 488a a8be 4418 43be
000002f0: 13a0 91be 058f b4bd 43ad a9bd f350 8f3d
00000300: 32c4 3abe 9000 c7be f82a c33d 0067 babe
00000310: 5ea7 babe fa6d 37bd 3854 833e 7654 f13c
00000320: 880d 05be 93dc a43e f41c 9f3c 0bf9 5abe
00000330: 3826 8e3e 81e4 30bc d922 54be a4e4 233e
00000340: a024 d83e 622f 623e 8827 bd3e da2c f83e
00000350: f88e cb3e 7d66 bb3e f39e cfbb 91d0 703e
00000360: 9646 cebd bc88 25bc 065f 90bc 7f04 e03d
00000370: 8bc4 773e 5a2d 223e 0781 373e a01a 4b3e
00000380: 97c5 05be 78ce 7fbc 8892 f7bd f917 e8be
00000390: 344f 9b3c 5c36 b43d 97b4 063e a01d 933c
000003a0: 7455 68bc 74dd dcbe 8b6a 8e3e b74f 593e
000003b0: f2ba 4f3e 69a7 a53d 7839 063d 72fe 753d
000003c0: 77c6 4abd 7fcf 3dbb ef49 23bd 46dd 713c
000003d0: 2b0c 1c3e 6e09 843d e210 8a3e 9473 703e
000003e0: ed35 6e3e ddae 843e 5d93 163e 396e 7b3e
000003f0: c6c9 823e d4e0 bf3e e616 483e 6600 0e3e

bias f4 [32]
0.09062997 0.028789975 -0.23933649 0.57002574 -0.04032245 0.08310109 -0.5118803 0.39765978
-1.3202446 0.0644347 -0.031384923 -0.010146407 -0.012860018 0.1793842 0.5149816 -0.32126743
0.70629156 0.39825514 -0.5791838 0.08331966 0.4563707 0.31217894 0.062143784 0.14140476
-0.16362508 0.20553489 -0.16750656 0.56758046 0.19265172 -0.5759692 -0.16016896 0.48761567
00000000: 359c b93d f4d8 eb3c a014 75be 35ed 113f
00000010: 2729 25bd e730 aa3d 960a 03bf 109a cb3e
00000020: c6fd a8bf 57f6 833d 7a8d 00bd 1e3d 26bc
00000030: d3b2 52bc 7eb0 373e d6d5 033f 2a7d a4be
00000040: 86cf 343f 19e8 cb3e 6445 14bf 7fa3 aa3d
00000050: 6ca9 e93e ebd5 9f3e 7b8a 7e3d 69cc 103e
00000060: 558d 27be bd77 523e d786 2bbe f44c 113f
00000070: 7e46 453e b872 13bf 5503 24be c3a8 f93e

weight f4 [32]
0.9189521 0.9470425 1.0004035 1.0690025 1.1908271 0.772246 1.0004102 1.0498734
1.1182667 0.8786178 1.1343966 1.0390552 1.0380784 0.9651016 1.0586913 0.9824034
1.1093552 1.1804701 1.0619768 1.0461477 1.2029381 1.0382764 1.0179584 0.8656167
1.1003922 1.1995344 1.1952333 1.2874019 1.1848222 0.93625486 0.9384121 0.9764495
00000000: 7240 6b3f 6171 723f 390d 803f 13d5 883f
00000010: 066d 983f eab1 453f 710d 803f 4062 863f
00000020: 5d23 8f3f 19ed 603f e833 913f c3ff 843f
00000030: c1df 843f e610 773f 3283 873f ca7e 7b3f
00000040: 5aff 8d3f a519 973f dbee 873f 2be8 853f
00000050: e0f9 993f 3ee6 843f 764c 823f 0e99 5d3f
00000060: a7d9 8c3f 588a 993f 68fd 983f 96c9 a43f
00000070: 41a8 973f 66ae 6f3f c63b 703f 98f8 793f

bias f4 [32]
-0.19935332 -0.6983771 -0.27328807 -0.76427376 -0.060672637 -0.67534006 -0.55504364 -0.7009825
-0.27936912 -0.32921052 -0.85122395 -0.9698253 -0.59793735 -0.5432716 -0.36497915 -0.36928767
-0.49275953 -0.7137465 -0.15989484 -0.2995271 -0.5401825 -0.32479087 -0.25774914 -0.35031372
-0.100834906 -0.6219756 -0.90474486 -0.51550823 -0.2744442 -0.18723364 -0.5857761 -0.6091572
00000000: 4723 4cbe d7c8 32bf 6aec 8bbe 72a7 43bf
00000010: df83 78bd 16e3 2cbf 5717 0ebf 9773 33bf
00000020: 7809 8fbe 488e a8be d0e9 59bf 7946 78bf
00000030: 6c12 19bf d913 0bbf 8cde babe 4613 bdbe
00000040: fa4a fcbe 17b8 36bf 79bb 23be 9e5b 99be
00000050: 6649 0abf fd4a a6be b2f7 83be 525c b3be
00000060: 8882 cebd cb39 1fbf 5c9d 67bf 59f8 03bf
00000070: f383 8cbe 2dba 3fbe 6cf5 15bf baf1 1bbf

running_mean f4 [32]
-4.086584 0.7605679 0.6572188 2.6433096 -1.5859902 1.161506 -1.4987109 -0.31042683
-3.5362937 -6.509604 -2.1961606 1.050826 -0.69983673 0.14472862 4.4852347 -3.0656388
3.2782845 1.1535989 -3.5650072 1.221188 -0.4443422 4.099372 0.3081525 -3.0731497
1.6514636 1.0407456 2.5403962 -0.15880713 -2.3548262 -1.4825968 -3.435411 -0.80579484
00000000: 4cc5 82c0 94b4 423f 7e3f 283f fc2b 2940
00000010: ba01 cbbf 3bac 943f c2d5 bfbf 44f0 9ebe
00000020: a352 62c0 ad4e d0c0 e58d 0cc0 7781 863f
00000030: 8028 33bf bd33 143e 0b87 8f40 6d33 44c0
00000040: 6acf 5140 21a9 933f 1429 64c0 e34f 9c3f
00000050: d280 e3be 0e2e 8340 2ac6 9d3e 7cae 44c0
00000060: 2963 d33f 2737 853f da95 2240 569e 22be
00000070: 79b5 16c0 bbc5 bdbf c6dd 5bc0 9248 4ebf

running_var f4 [32]
9.074554 5.63038 3.384327 2.2264242 8.38177 3.0999312 8.489906 8.2674
6.48404 15.621081 3.3065748 2.2346017 4.378807 4.71282 4.5839143 5.103109
4.6281624 3.95023 8.6488695 6.7227106 4.600572 4.9068084 7.427383 5.878439
4.246942 2.3239565 4.2680774 5.3514237 5.8628507 3.9937086 5.0087757 5.2023945
00000000: 6031 1141 132c b440 d098 5840 bc7d 0e40
00000010: bb1b 0641 4665 4640 a8d6 0741 4547 0441
00000020: 417d cf40 f3ef 7941 ec9e 5340 b703 0f40
00000030: 301f 8c40 6ccf 9640 6daf 9240 ab4c a340
00000040: e819 9440 91d0 7c40 c561 0a41 7220 d740
00000050: e337 9340 9304 9d40 1fad ed40 2c1c bc40
00000060: f3e6 8740 b4bb 1440 1794 8840 dd3e ab40
00000070: 799c bb40 ec98 7f40 e447 a040 047a a640

weight f4 [64, 32, 3, 3]
-0.37000498 -0.14959452 -0.07168491 -0.3461842 -0.54879904 -0.04411684 -0.35881907 -0.25031823
0.04765866 0.244084 0.25629848 0.16815858 0.20396033 0.10247254 0.08272431 0.278428
0.17930926 0.20070359 0.36322895 -0.041154396 0.28645432 -0.23464791 -0.42568523 -0.22068354
-0.48885512 -0.5943246 -0.44338766 -0.19876508 0.24309358 -0.31792298 -0.2545501 0.17385983
-0.4267618 -0.20443596 0.28976676 -0.26459664 -1.1566405 -1.3478013 -0.7977053 -0.98164517
-1.3195153 -0.8671135 -0.70142484 -0.9970921 -0.9786553 0.5511471 0.034708314 0.06597876
-0.11092149 -0.07903098 -0.1391453 -0.13076551 -0.2834836 0.15666515 0.09757326 -0.0768238
0.06793778 0.27111366 -0.07535068 -0.022846024 -0.2800766 -0.5711123 -0.2857437 -0.81983817
0.34868267 -0.5502107 -0.9623937 0.3027062 -0.22642899 -1.3289868 0.21887085 -0.043829355
0.046957094 -0.12510274 0.36796564 -0.07101165 0.22648457 0.34696296 0.006289119 0.3115562
0.34568095 0.44007817 0.25589743 0.6021845 -0.010122679 -0.14895135 -0.065122046 -0.029986566
0.017406799 -0.013644158 0.19086938 -0.3678568 0.2621001 0.16742952 -0.13084361 0.2617641
0.17183836 -0.011012114 0.33632538 -0.17791837 0.39772502 -0.009901008 -0.41159868 0.38180375
0.062959746 -0.5224083 0.4312794 -0.1300102 -0.10454038 0.1281101 0.2958369 -0.20843248
0.3723575 0.12967288 0.09918992 0.63393724 0.3792322 -0.07639526 -0.13704672 -0.25240973
0.102945596 -0.24644437 -0.24708796 0.12434167 -0.08037913 0.01869953 -0.20013905 0.11834037
-0.08266428 -0.038853895 0.068603605 -0.07374268 -0.15891153 0.09204613 0.022012336 -0.72961414
-1.0620434 -0.17344853 -0.37505224 -0.6357065 -0.05714892 0.09298455 -0.31175485 0.22141023
0.12629119 0.23024915 0.0755679 -0.17250583 0.25930482 0.01006483 -0.16122042 0.1413024
-0.21072498 -0.29696015 0.3218762 -0.074437395 -0.4958662 0.442185 0.16024071 -0.556616
0.24445264 0.07271427 -0.36453927 -0.9344168 -0.640415 -0.3454335 -0.22241026 -0.7025325
-0.24753295 0.043704253 -0.19084236 -0.6157089 -0.9081271 -0.0400643 -0.7392531 -0.85248697
0.08288407 -0.883124 -0.69151545 0.029971907 0.18543823 -0.108848274 0.4426799 0.18576175
0.014556203 0.29269996 0.3278582 0.18107456 0.48395503 -0.6380015 -0.6187544 -0.56295425
-0.78627646 -0.52906346 -0.68488234 -0.9677271 -0.632063 -0.8153221 -0.8041241 -0.9134497
-0.055776134 -0.92667764 -1.1524361 -0.0017959952 -0.8980138 -0.93374676 0.03579725 -0.20951565
0.44159865 0.13988334 0.1199984 0.15095404 0.19114044 0.28226084 0.1934779 0.2956437
-0.3294056 -0.20196976 -0.38622135 -0.18398082 -0.11178458 -0.22971949 -0.06576267 -0.0475567
0.0045475843 -0.17868356 0.29014865 -0.42658794 -0.1477382 0.26162845 -0.33866578 -0.011888378
0.34443888 -0.19520777 -0.37967765 0.43737507 -0.03366036 -0.48045158 0.41647923 -0.08291139
-0.6095429 0.38725448 0.016705979 -0.67687356 0.3998843 -0.0033736487 -0.9131515 0.41722205
-0.026612086 -0.7410624 0.49699554 0.4650044 0.17531072 -0.10669142 -0.23896243 0.35975897
00000000: 4b71 bdbe 4e2f 19be 8acf 92bd 0e3f b1be
00000010: 187e 0cbf dcb3 34bd 22b7 b7be b629 80be
00000020: ba35 433d 28f1 793e 8e39 833e c331 2c3e
00000030: fada 503e 20dd d13d 5d6b a93d 1d8e 8e3e
00000040: d99c 373e 3e85 4d3e 25f9 b93e 8391 28bd
00000050: 24aa 923e 8b47 70be 6af3 d9be defa 61be
00000060: 384b fabe a825 18bf b503 e3be 1389 4bbe
00000070: 86ed 783e cdc6 a2be 6454 82be 5008 323e
00000080: 8680 dabe a957 51be 4f5c 943e 3679 87be
00000090: cc0c 94bf c184 acbf 6a36 4cbf 194d 7bbf
000000a0: e1e5 a8bf 26fb 5dbf 9490 33bf 6e41 7fbf
000000b0: 2789 7abf fa17 0d3f 4e2a 0e3d df1f 873d
000000c0: ce2a e3bd ffda a1bd 1b7c 0ebe 65e7 05be
000000d0: c324 91be d46c 203e 7dd4 c73d cc55 9dbd
000000e0: f622 8b3d 69cf 8a3e 7551 9abd 9627 bbbc
000000f0: 3366 8fbe 6a34 12bf 004d 92be eae0 51bf
00000100: 8986 b23e 9cda 0cbf 6f5f 76bf 4ffc 9a3e
00000110: 00dd 67be 3d1c aabf ae1f 603e 6986 33bd
00000120: 1556 403d ef1a 00be fe65 bc3e 8e6e 91bd
00000130: 92eb 673e 21a5 b13e f414 ce3b 4b84 9f3e
00000140: 18fd b03e ed51 e13e fd04 833e c328 1a3f
00000150: 98d9 25bc b486 18be b55e 85bd 63a6 f5bc
00000160: b498 8e3c bf8b 5fbc 4373 433e ba57 bcbe
00000170: fc31 863e a572 2b3e defb 05be f205 863e
00000180: 65f6 2f3e 276c 34bc d732 ac3e 3c30 36be
00000190: 9da2 cb3e d637 22bc 10bd d2be c87b c33e
000001a0: 0af1 803d 8dbc 05bf a7d0 dc3e 6521 05be
000001b0: 4419 d6bd 4b2f 033e ef77 973e 536f 55be
000001c0: a4a5 be3e f8c8 043e 1624 cb3d b649 223f
000001d0: b92a c23e 1e75 9cbd fa55 0cbe d93b 81be
000001e0: 24d5 d23d ea5b 7cbe a004 7dbe d8a6 fe3d
000001f0: d09d a4bd c22f 993c 40f1 4cbe 705c f23d
00000200: e44b a9bd 4325 1fbd 0c80 8c3d 6706 97bd
00000210: b4b9 22be ae82 bc3d 3753 b43c fec7 3abf
00000220: 0af1 87bf 7e9c 31be d906 c0be a9bd 22bf
00000230: fc14 6abd af6e be3d 559e 9fbe 5db9 623e
00000240: 7a52 013e 6fc6 6b3e 58c3 9a3d 5ea5 30be
00000250: 9ac3 843e f5e6 243c f716 25be 94b1 103e
00000260: 4ac8 57be 290b 98be f5cc a43e a272 98bd
00000270: 2de2 fdbe 1366 e23e 2416 243e 637e 0ebf
00000280: cb51 7a3e 38eb 943d e4a4 babe f035 6fbf
00000290: 3df2 23bf a9dc b0be 84bf 63be 2bd9 33bf
000002a0: 4779 7dbe 3b03 333d 2e6c 43be 199f 1dbf
000002b0: 057b 68bf 771a 24bd b13f 3dbf 963c 5abf
000002c0: 20bf a93d 6a14 62bf 2807 31bf a587 f53c
000002d0: 85e3 3d3e d8eb debd f1a6 e23e 5438 3e3e
000002e0: 247d 6e3c c5dc 953e 08dd a73e 9c6b 393e
000002f0: f4c8 f73e 1154 23bf b066 1ebf c51d 10bf
00000300: 6a49 49bf b470 07bf 7354 2fbf f7bc 77bf
00000310: e1ce 21bf f3b8 50bf 14db 4dbf d7d7 69bf
00000320: 8475 64bd bf3a 6dbf 0783 93bf 9967 ebba
00000330: 3be4 65bf 070a 6fbf 23a0 123d 458b 56be
00000340: 3819 e23e 943d 0f3e b9c1 f53d b293 1a3e
00000350: 52ba 433e 7e84 903e 121f 463e 9c5e 973e
00000360: daa7 a8be 29d1 4ebe cebe c5be 7865 3cbe
00000370: 50ef e4bd 963b 6bbe 94ae 86bd d0ca 42bd
00000380: e703 953b d3f8 36be 5d8e 943e bc69 dabe
00000390: af48 17be 2af4 853e 9a65 adbe 79c7 42bc
000003a0: 4b5a b03e 8ce4 47be 1c65 c2be a0ef df3e
000003b0: 72df 09bd c0fd f5be c43c d53e 72cd a9bd
000003c0: 010b 1cbf 3846 c63e fada 883c 9647 2dbf
000003d0: a3bd cc3e 6f18 5dbb 4cc4 69bf 219e d53e
000003e0: 9701 dabc 44b6 3dbf 3376 fe3e 0f15 ee3e
000003f0: a784 333e 0881 dabd 91b2 74be 5432 b83e

bias f4 [64]
-0.32348585 0.33449876 -0.0020891195 -0.15831944 -0.25238243 -0.061254516 -0.07128634 -0.14175543
-0.21889557 -0.14946425 0.09230164 0.0050949315 -0.0516632 -0.21731868 -0.26924357 0.37875542
-0.301558 -0.16786975 -0.14239874 -0.31169027 -0.16617963 0.41452542 -0.25092602 -0.27636418
-0.15589918 -0.2730925 0.083545886 0.02521059 -0.21097153 0.3208051 -0.2260274 -0.13169758
-0.2817804 -0.371637 0.2674806 0.16988294 -0.17383894 -0.32134476 -0.11213855 -0.3562902
-0.20805888 -0.21657032 -0.43695793 0.25225568 -0.24981141 -0.22173443 -0.34830815 0.20430772
-0.08995459 0.013475467 -0.33711776 -0.16699481 -0.259833 -0.1772247 0.071626656 -0.20250864
-0.1441013 -0.33647755 0.39416426 -0.40903518 -0.044003807 -0.09553342 0.050152175 -0.40267155
00000000: f09f a5be 6c43 ab3e 9ce9 08bb 7e1e 22be
00000010: 4538 81be 04e6 7abd 93fe 91bd 5628 11be
00000020: 2926 60be 280d 19be a408 bd3d 62f3 a63b
00000030: cb9c 53bd ca88 5ebe 4bda 89be 3bec c13e
00000040: cf65 9abe 0ce6 2bbe fad0 11be de95 9fbe
00000050: fe2a 2abe ad3c d43e 6079 80be 9b7f 8dbe
00000060: 09a4 1fbe c8d2 8bbe 1b1a ab3d 7086 ce3c
00000070: ec08 58be 9140 a43e ba73 67be bbdb 06be
00000080: 8545 90be 3447 bebe 38f3 883e cbf5 2d3e
00000090: d602 32be 4d87 a4be e5a8 e5bd ab6b b6be
000000a0: 630d 55be 9cc4 5dbe f3b8 dfbe a827 813e
000000b0: 90ce 7fbe 5a0e 63be 7255 b2be 0b36 513e
000000c0: 1d3a b8bd 35c8 5c3c b39a acbe b000 2bbe
000000d0: d508 85be 647a 35be ffb0 923d 6d5e 4fbe
000000e0: 4b8f 13be c946 acbe e6cf c93e 0f6d d1be
000000f0: 563d 34bd 07a7 c3bd 5e6c 4d3d f72a cebe

weight_ih_l0 f4 [512, 64]
-0.19561768 -0.1580477 0.040874247 -0.19699274 0.8666357 1.0487046 0.06477287 -0.37369737
-0.19580425 0.0067295046 -0.11747889 0.9717564 -0.026635712 0.15992506 -0.05736588 -0.07187608
-0.3177577 -0.069271065 -0.43913746 0.0011584623 0.13728437 -0.18073761 -0.31907648 0.22153692
-0.008593199 0.35335898 0.72609407 0.7086007 -0.122204706 -0.027990956 -0.39275128 0.0139756035
0.38869107 0.3985052 -0.08812977 0.11738929 0.15368819 -0.20456128 -0.009675042 0.43493572
0.18482397 -0.30671537 0.33751562 -0.22929734 0.14517511 1.1171204 0.54418343 0.056650043
0.023528002 0.16193576 0.17115152 0.6190331 -0.4599334 -0.28406006 0.74455357 -0.2539515
-0.22054836 0.54860455 -0.21145658 0.9540377 0.6871073 0.020963747 0.8113503 0.46880767
-0.49425483 -0.25810403 -0.003632643 -0.45130476 -0.8118071 -0.15038742 0.09710293 -0.41206107
-0.5405892 -0.001512273 -0.07202803 -0.42919174 0.06967188 -0.7430464 -0.46039137 -0.4236837
-0.42907095 -0.2706875 -0.4691258 -0.16682756 -0.75922287 -0.22833446 -0.46660432 -0.447101
-0.56818056 -0.40650144 -0.3762299 -0.2280812 -0.3085922 -0.29808843 -0.44119844 -0.09772968
-0.47641537 -0.050816048 -0.40841055 0.08219917 0.06153061 -0.34752348 0.010410837 -0.4058376
-0.4136071 -0.344041 -0.22879049 0.0070448834 -0.31092626 -0.114708185 -0.08551497 -0.08266605
-0.0038027072 -0.50395596 -0.8694951 -0.45522645 -0.53686345 -0.5026495 -0.19519529 -0.24749637
-0.3097629 -0.51746863 -0.35987404 -0.1304106 -0.45502263 0.004774197 -0.27711147 -0.28449708
-0.68302876 -0.17118551 0.008664129 -0.3530333 -0.7113812 -0.32046032 -0.04229492 -0.4241922
-0.9146643 0.024276577 -0.2895463 -0.3750979 0.01747046 -0.95501006 -0.40917456 -0.092035934
-0.4891207 -0.2757811 -0.5460181 -0.060652267 -0.9112412 -0.060917206 -0.6677388 -0.4115971
-0.8324187 -0.5586056 -0.2576945 -0.34199947 -0.6177677 -0.21576394 -0.103244625 -0.00919828
-0.72797143 -0.06152561 -0.010825235 0.2470044 0.09701095 -0.586978 -0.049529262 -0.52638054
-0.70616144 -0.46927443 -0.27947253 -0.11335013 -0.38042414 -0.42681777 -0.018496688 0.04670574
0.09123669 -0.314999 -1.0141753 -0.627179 -0.31189877 -0.93485934 -0.36412105 -0.5709254
-0.29736027 -0.5769441 -0.11521731 -0.3817966 -0.34884444 0.080052495 -0.20698136 -0.33747506
-0.28615326 -0.8344495 0.009448532 -0.12049991 0.27074215 -0.3196751 0.032914672 -0.22916886
-0.29356492 -0.10824611 -0.12098542 -0.07238255 -0.011524225 -0.19392657 -0.27063745 -0.6218502
-0.42246553 -0.2576403 -0.36788997 -0.55388355 0.027134163 -0.5402431 -0.308292 -0.01122395
-0.25941527 0.005861915 -0.15733632 -0.10214881 -0.34947485 -0.74674976 -0.3752309 -0.010508794
0.08069534 -0.464529 -0.67290545 0.24008343 -0.061635274 -0.1840806 0.039957196 0.17079495
-0.126298 -0.2978415 0.18993682 -0.5222853 0.09657717 -0.1704121 0.14556336 -0.8400433
-0.013335304 -0.43215066 0.025496794 0.17404823 -0.3109742 -0.39321724 0.010569267 -0.3986565
-0.23092568 0.028831014 -0.8114538 -0.03602081 0.32658336 -0.071086444 -0.029488442 0.25050402
00000000: 0050 48be 42d7 21be c16b 273d 77b8 49be
00000010: d6db 5d3f f43b 863f a3a7 843d 4355 bfbe
00000020: e980 48be 2d83 dc3b c698 f0bd 07c5 783f
00000030: 2333 dabc 65c3 233e 7cf8 6abd c433 93bd
00000040: 23b1 a2be fddd 8dbd a0d6 e0be 8bd7 973a
00000050: 4694 0c3e 4813 39be fe5d a3be 93da 623e
00000060: 7dca 0cbc 78eb b43e 4de1 393f db66 353f
00000070: 7646 fabd 4a4d e5bc b216 c9be eef9 643c
00000080: 8402 c73e e008 cc3e 617d b4bd cc69 f03d
00000090: 7060 1d3e 8378 51be 1184 1ebc e5af de3e
000000a0: 7f42 3d3e cc09 9dbe d9ce ac3e eccc 6abe
000000b0: c9a8 143e cdfd 8e3f 9b4f 0b3f e009 683d
000000c0: ccbd c03c 7dd2 253e 5842 2f3e f478 1e3f
000000d0: 647c ebbe 5270 91be 109b 3e3f ee05 82be
000000e0: 6ed7 61be 5971 0c3f 1388 58be d13b 743f
000000f0: 44e6 2f3f 2abc ab3c a7b4 4f3f 8f07 f03e
00000100: f80e fdbe 3626 84be a311 6ebb 6b11 e7be
00000110: 97d2 4fbf 29ff 19be e7dd c63d abf9 d2be
00000120: 0e64 0abf 7637 c6ba 6f83 93bd 05bf dbbe
00000130: 21b0 8e3d 4a38 3ebf 6bb8 ebbe 12ed d8be
00000140: 30af dbbe 8d97 8abe 4231 f0be d8d4 2abe
00000150: 6e5c 42bf 82d0 69be c3e6 eebe 6cea e4be
00000160: 4874 11bf f520 d0be 35a1 c0be 1e8e 69be
00000170: ccff 9dbe 0c9f 98be c3e4 e1be 8026 c8bd
00000180: b7ec f3be 7d24 50bd 301b d1be 0a58 a83d
00000190: 8507 7c3d 99ee b1be 3792 2a3c f2c9 cfbe
000001a0: 4fc4 d3be 2426 b0be 0e48 6abe c4d8 e63b
000001b0: ba31 9fbe 20ec eabd 7922 afbd d14c a9bd
000001c0: d736 79bb 4203 01bf 3b97 5ebf 7113 e9be
000001d0: e26f 09bf a3ad 00bf 46e1 47be b06f 7dbe
000001e0: 3e99 9ebe d378 04bf 6941 b8be 5b8a 05be
000001f0: baf8 e8be de70 9c3b 8ee1 8dbe 9aa9 91be
00000200: f9da 2ebf 414b 2fbe fef3 0d3c c8c0 b4be
00000210: 141d 36bf 6013 a4be 703d 2dbd b82f d9be
00000220: 7127 6abf acdf c63c 6a3f 94be d50c c0be
00000230: 361e 8f3c 8a7b 74bf 547f d1be 567d bcbd
00000240: 076e fabe 2e33 8dbe d8c7 0bbf 836e 78bd
00000250: 1a47 69bf 5284 79bd eef0 2abf dbbc d2be
00000260: 6419 55bf c700 0fbf 89f0 83be 8e1a afbe
00000270: 0626 1ebf 39f1 5cbe eb71 d3bd 62b4 16bc
00000280: 565c 3abf 4702 7cbd 545c 31bc b9ee 7c3e
00000290: adad c63d 3144 16bf 32df 4abd e0c0 06bf
000002a0: ffc6 34bf bd44 f0be 0617 8fbe 1d24 e8bd
000002b0: f4c6 c2be dc87 dabe 5e86 97bc 854e 3f3d
000002c0: 4dda ba3d 8d47 a1be 7fd0 81bf ce8e 20bf
000002d0: 32b1 9fbe f152 6fbf 136e babe 2b28 12bf
000002e0: 9b3f 98be 9cb2 13bf 0ef7 ebbd d87a c3be
000002f0: bd9b b2be 90f2 a33d ecf2 53be 88c9 acbe
00000300: ae82 92be 7c9e 55bf 04ce 1a3c a8c8 f6bd
00000310: b79e 8a3e 74ac a3be 89d1 063d 3eab 6abe
00000320: 244e 96be 23b0 ddbd 34c7 f7bd 4d3d 94bd
00000330: 1ad0 3cbc b094 46be fe90 8abe 9331 1fbf
00000340: 674d d8be 6ee9 83be 135c bcbe 50cb 0dbf
00000350: 7748 de3c 5f4d 0abf 73d8 9dbe a9e4 37bc
00000360: 14d2 84be 4f15 c03b c61c 21be 6533 d1bd
00000370: 5eee b2be fe2a 3fbf 441e c0be 142d 2cbc
00000380: 9943 a53d bfd6 edbe 8843 2cbf 6ed8 753e
00000390: 4575 7cbd a07f 3cbe 28aa 233d dfe4 2e3e
000003a0: 4354 01be ae7e 98be cc7e 423e 7db4 05bf
000003b0: 40ca c53d 8280 2ebe 900e 153e 140d 57bf
000003c0: 527c 5abc da42 ddbe a7de d03c b339 323e
000003d0: 0338 9fbe c553 c9be b82a 2d3c b41c ccbe
000003e0: c877 6cbe 052f ec3c 70bb 4fbf 8f8a 13bd
000003f0: ef35 a73e c595 91bd bf91 f1bc 1042 803e

weight_hh_l0 f4 [512, 128]
-0.27717337 -0.61036444 -0.36666614 0.40504077 -0.14345032 0.1343219 0.53343314 0.17625993
-0.26644805 -0.4464629 0.3553037 -0.2759163 -0.318384 0.027206654 0.5813899 -0.19078016
-0.72368723 -0.24936576 0.51386803 -0.18480277 -0.4004645 -0.5054799 0.22675824 0.5456548
0.47207424 -0.24988051 0.14952506 0.55131775 -0.045443203 -0.28796878 -0.19119051 -0.25880364
0.3884224 -0.26174557 0.42701143 -0.056408692 0.0034447594 -0.38335294 0.21981435 -0.18729793
0.07422487 -0.35980278 -0.19148543 -0.41196868 -0.010251275 -0.25436738 -0.07419775 -0.3811064
-0.15769526 0.12898484 -0.24370262 0.01872952 0.14832348 0.21687949 -0.1670302 -0.5047969
0.08097203 -0.19246635 -0.34519643 -0.12681204 -0.052268293 0.3295394 -0.08817225 0.029203318
-0.16780645 -0.43502352 -0.0873792 0.08546907 0.3448924 -0.5302261 -0.102143936 0.3688276
0.24061152 0.3854502 -0.2852764 -0.119946145 0.1311503 0.07266471 -0.22632411 -0.080932945
0.2570887 -0.010893665 0.36783862 0.15486312 -0.19067308 -0.414641 0.89616084 0.12073529
-0.23302019 -0.20441325 0.012100759 0.16314766 -0.4082139 0.23973805 -0.25542822 -0.09752429
0.31383377 -0.21005115 0.18458416 -0.204971 0.23438956 0.28295717 0.68128055 -0.22248839
0.38577244 0.28816932 -0.36602366 -0.27727342 0.13382746 -0.12750185 -0.18175045 0.3433899
0.047804594 0.2867442 0.14972939 0.090371795 0.06782518 0.49296 -0.081917584 0.04530889
0.53682715 -0.15518646 0.10006596 0.14848015 0.08681266 -0.21307008 0.18967293 -0.010039568
-0.07768247 -0.3690303 -0.08609969 0.11378643 0.4558071 -0.43528542 -0.18762393 -0.40177068
0.09343019 -0.107412875 -0.3586181 0.41345066 0.36503467 -0.3902521 0.66088635 -0.14666916
-0.07310587 -0.31866297 0.3549391 0.22142848 0.37383553 0.17365246 -0.27688184 -0.26205936
-0.24266422 0.3035791 0.1657036 -0.2666813 -0.2419648 0.17914942 0.43395147 -0.18713634
0.75047517 0.19807068 -0.028476778 0.16962035 -0.09433451 0.34140837 -0.14317715 0.18187441
-0.25101563 -0.12887444 -0.057434544 -0.017112806 -0.36683783 0.13153651 0.31795704 0.45033127
-0.083935454 -0.39608824 0.22675826 -0.5067122 0.1639201 -0.22073258 -0.24643092 0.22543061
-0.27432424 0.05075727 -0.09989372 -0.603691 -0.04011871 -0.18104048 -0.17702724 -0.7281185
-0.44661447 -0.27620354 -0.18611076 -0.4579072 -0.15286253 0.32194573 0.57306176 -0.09215241
0.315287 0.36595586 0.0030018655 0.7314112 -0.37073842 -0.13922863 0.49496758 0.3932891
-0.6563579 0.5007929 -0.41836765 0.18668358 0.13338287 0.19984193 0.17432861 -0.36633483
-0.031055566 0.10182498 -0.45347086 -0.14192535 -0.3818712 -0.3683479 0.03375189 0.16992961
0.6883217 -0.36306158 -0.35870466 -0.05965372 -0.27667868 -0.6786912 -0.109940626 0.35037035
-0.13630834 -0.04677925 -0.04788907 0.4467197 0.34975776 0.60926193 0.16186126 -0.123736754
0.015095017 0.20771202 -0.135687 -0.54768574 0.51240736 -0.023966445 -0.2879729 0.12892488
-0.41919845 -0.2997042 -0.053979456 0.55176854 -0.0806491 -0.036564227 0.4167548 0.49339318
00000000: abe9 8dbe d840 1cbf aabb bbbe 8161 cf3e
00000010: a4e4 12be ae8b 093e 138f 083f 7c7d 343e
00000020: e16b 88be c996 e4be 5eea b53e e744 8dbe
00000030: 3a03 a3be 7de0 de3c f8d5 143f e05b 43be
00000040: 9143 39bf bd59 7fbe db8c 033f f03c 3dbe
00000050: af09 cdbe 2167 01bf 5033 683e 08b0 0b3f
00000060: b7b3 f13e ade0 7fbe 191d 193e 2923 0d3f
00000070: a722 3abd a570 93be 72c7 43be e981 84be
00000080: 4ddf c63e 8403 86be 3ea1 da3e cd0c 67bd
00000090: 79c1 613b d646 c4be 0317 613e 07cb 3fbe
000000a0: 3503 983d 1238 b8be c214 44be 8fed d2be
000000b0: f7f4 27bc 713c 82be fdf4 97bd 6120 c3be
000000c0: de7a 21be 9a14 043e 2e8d 79be a66e 993c
000000d0: 1ce2 173e a815 5e3e f709 2bbe 5f3a 01bf
000000e0: aad4 a53d e615 45be 96bd b0be 04db 01be
000000f0: 4717 56bd 63b9 a83e a793 b4bd cc3b ef3c
00000100: 74d5 2bbe 67bb debe def3 b2bd 680a af3d
00000110: bd95 b03e e6bc 07bf d730 d1bd f9d6 bc3e
00000120: de62 763e bb59 c53e c00f 92be 53a6 f5bd
00000130: 444c 063e 3cd1 943d 82c1 67be 2cc0 a5bd
00000140: 21a1 833e 587b 32bc 5855 bc3e 7094 1e3e
00000150: ce3f 43be d34b d4be cc6a 653f 1044 f73d
00000160: d89c 6ebe b551 51be 4342 463c 2e10 273e
00000170: 6a01 d1be e47d 753e 7dc7 82be d1ba c7bd
00000180: d2ae a03e a617 57be a103 3d3e ebe3 51be
00000190: d103 703e c3df 903e 6768 2e3f ffd3 63be
000001a0: f783 c53e ee8a 933e 7467 bbbe c8f6 8dbe
000001b0: 110a 093e d88f 02be ca1c 3abe cdd0 af3e
000001c0: c0ce 433d 23d0 923e a952 193e d914 b93d
000001d0: eee7 8a3d 4165 fc3e 68c4 a7bd d195 393d
000001e0: 816d 093f 33e9 1ebe 62ef cc3d 2e0b 183e
000001f0: d6ca b13d 0b2f 5abe 9f39 423e 007d 24bc
00000200: fd17 9fbd 8af1 bcbe 0955 b0bd dc08 e93d
00000210: 8c5f e93e bbdd debe 7d20 40be e3b4 cdbe
00000220: 5458 bf3d 48fb dbbd cb9c b7be ceaf d33e
00000230: d3e5 ba3e 20cf c7be d92f 293f 7130 16be
00000240: 88b8 95bd cb27 a3be 94ba b53e 26be 623e
00000250: 5f67 bf3e f3d1 313e 75c3 8dbe a52c 86be
00000260: f87c 78be b86e 9b3e 34ae 293e 748a 88be
00000270: 9fc5 77be f272 373e e32e de3e aba0 3fbe
00000280: 241f 403f 0ad3 4a3e 2248 e9bc f5b0 2d3e
00000290: 7432 c1bd 14cd ae3e 089d 12be 493d 3a3e
000002a0: 1f85 80be a9f7 03be 7c40 6bbd 2830 8cbc
000002b0: 2bd2 bbbe 82b1 063e 44cb a23e d291 e63e
000002c0: 5ae6 abbd 14cc cabe 5133 683e e4b7 01bf
000002d0: acda 273e b907 62be 6358 7cbe 48d7 663e
000002e0: 3a74 8cbe dbe6 4f3d 1495 ccbd 7e8b 1abf
000002f0: 8453 24bd ad62 39be a146 35be f965 3abf
00000300: a7aa e4be 8d6a 8dbe d293 3ebe d072 eabe
00000310: ff87 1cbe 12d6 a43e 2db4 123f 67ba bcbd
00000320: 4c6d a13e 915e bb3e f2ba 443b c43d 3b3f
00000330: 6dd1 bdbe f391 0ebe 646c fd3e 305d c93e
00000340: 1207 28bf f733 003f 4934 d6be fb29 3f3e
00000350: 8595 083e 5da3 4c3e 3383 323e 3d90 bbbe
00000360: 3e68 febc 9d89 d03d 552d e8be e154 11be
00000370: 9f84 c3be 1998 bcbe 6c3f 0a3d 0702 2e3e
00000380: da35 303f 35e3 b9be 23a8 b7be 7657 74bd
00000390: d4a8 8dbe b5be 2dbf 8d28 e1bd be63 b33e
000003a0: 6a94 0bbe 999b 3fbd 5427 44bd 72b8 e43e
000003b0: 7313 b33e 97f8 1b3f f5be 253e b269 fdbd
000003c0: 1751 773c 76b2 543e 88f1 0abe 2235 0cbf
000003d0: 212d 033f 4755 c4bc 2f71 93be e204 043e
000003e0: 2ea1 d6be d472 99be 9019 5dbd b440 0d3f
000003f0: 5b2b a5bd 5fc4 15bd e360 d53e 089e fc3e

bias_ih_l0 f4 [512]
-0.19316338 0.019991161 0.15471111 0.092436485 -0.12156789 -0.48483536 0.17202379 -0.3721806
-0.114464626 0.15599379 -0.30656898 -0.08962393 0.12834054 0.13015464 -0.35854694 -0.01889328
-0.03904325 -0.18349081 -0.09262004 0.22190747 -0.49080932 0.021237593 -0.29587275 0.11184018
0.051059812 0.03805113 -0.253371 0.09918534 -0.19816539 0.21912041 0.054219328 -0.4369855
-0.4428265 0.21024919 -0.10472827 0.18971688 0.16374342 -0.45018137 0.17527471 -0.41483787
-0.35090017 -0.26460165 -0.25938353 -0.35423636 0.03294438 -0.44508797 0.12831911 -0.08958733
-0.0986205 0.09419791 -0.21947888 0.052209824 -0.31410393 -0.40571544 -0.36679924 0.15000893
0.07387766 -0.4785173 -0.023371503 -0.25531057 -0.2335241 -0.1121043 -0.37641528 -0.004162712
-0.1499724 -0.18896522 -0.382389 0.117189616 -0.1550336 0.10524435 0.16611405 -0.06553483
0.09760958 -0.22624505 -0.29950735 0.30543834 -0.46101445 0.024136333 0.15875281 0.07680221
0.19734763 -0.48934844 -0.32682556 -0.1551161 -0.13788329 -0.38358283 -0.08817049 0.11633732
-0.18628648 -0.2641723 -0.13632922 -0.3583957 -0.1001016 -0.3483237 0.05765582 -0.17706662
0.065178126 -0.37497547 0.17547819 0.0649305 0.1341527 0.1226078 0.12361742 0.15933354
-0.3658866 -0.32963634 0.105505966 0.18220377 -0.33281443 0.1850132 -0.3842283 -0.47181183
-0.4843854 -0.06729485 -0.07556318 0.04998829 -0.4897692 0.06773071 -0.42149585 -0.19993678
0.2474975 -0.19767138 -0.11068969 -0.31254983 -0.40292448 -0.6222147 0.14341748 -0.5157585
-0.15323527 0.2756 0.17431511 -0.1952808 -0.32658848 -0.37949076 0.007503827 -0.14619131
-0.18452035 -0.07160354 0.040225584 -0.08689031 -0.043893665 -0.2702174 0.095604435 0.06396489
-0.13728775 -0.08827983 -0.20940635 -0.106948294 -0.1827934 -0.39131004 -0.31830418 0.05769095
0.029073505 -0.013264345 -0.33538833 0.0039502666 -0.2960575 -0.23488377 0.0027171434 -0.1499172
-0.2470757 -0.12267661 -0.51925796 -0.07559922 -0.15888762 -0.22597751 0.41804242 -0.37821436
-0.26362762 -0.6069506 -0.06400809 0.032036114 -0.081887595 -0.2875969 -0.034802113 -0.20845091
-0.18488578 -0.09324364 -0.33033523 -0.23277979 0.21127461 -0.21065538 -0.06989125 0.025303835
0.036596 -0.3870341 0.26414308 -0.29397425 -0.22982526 -0.031122174 -0.24386263 -0.060889423
-0.19919334 -0.31696707 -0.30554646 -0.12756093 -0.014460572 0.09496019 -0.24645184 -0.007514359
-0.16683619 -0.17296432 -0.025713453 -0.16076995 -0.10565048 -0.23277831 -0.18878472 -0.16092308
-0.22995545 -0.011953866 0.14693554 -0.1853273 -0.0970628 0.036936924 -0.15351541 -0.13150272
-0.0046636662 -0.09991296 0.07209592 -0.588676 0.03859748 -0.060613435 -0.5866692 0.105667084
-0.12246968 0.07902079 -0.035563122 -0.20366488 -0.011787387 -0.16571623 -0.483769 -0.14853664
-0.07887748 -0.39224854 -0.2830569 -0.13122448 0.016079769 -0.20033929 -0.15757068 -0.07980617
0.12921602 -0.49391338 -0.24054913 -0.17480066 -0.27567685 -0.024699435 -0.2477396 0.28169823
0.0544872 -0.5170942 -0.2798537 -0.050867166 0.10515058 -0.07314022 -0.09912499 0.094455555
00000000: 9fcc 45be 81c4 a33c 976c 1e3e 574f bd3d
00000010: 96f8 f8bd 573c f8be 0127 303e 758e bebe
00000020: 6e6c eabd d6bc 1f3e 9cf6 9cbe c08c b7bd
00000030: b46b 033e 4247 053e 7793 b7be 14c6 9abc
00000040: d1eb 1fbd 04e5 3bbe 93af bdbd b63b 633e
00000050: 5c4b fbbe 76fa ad3c a27c 97be 770c e53d
00000060: 1824 513d 80db 1b3d d8b9 81be af21 cb3d
00000070: deeb 4abe 1a61 603e 1615 5e3d 90bc dfbe
00000080: 28ba e2be 904b 573e c67b d6bd 2445 423e
00000090: 5bac 273e 2c7e e6be 377b 333e a165 d4be
000000a0: 30a9 b3be de79 87be ebcd 84be 785e b5be
000000b0: b0f0 063d 92e2 e3be 1666 033e 9079 b7bd
000000c0: 8bf9 c9bd d5ea c03d 12bf 60be f8d9 553d
000000d0: 3bd2 a0be efb9 cfbe 1ccd bbbe f19b 193e
000000e0: 2c4d 973d 3800 f5be 9875 bfbc 11b8 82be
000000f0: f120 6fbe f096 e5bd 81b9 c0be 5c67 88bb
00000100: 5d92 19be 1980 41be 7ec8 c3be 1c01 f03d
00000110: 21c1 1ebe 5a8a d73d cd19 2a3e 2037 86bd
00000120: 88e7 c73d c8ac 67be 0759 99be 6a62 9c3e
00000130: 160a ecbe 8fb9 c53c 1990 223e 7a4a 9d3d
00000140: 7f15 4a3e e18b fabe ae55 a7be c1d6 1ebe
00000150: 4731 0dbe f864 c4be bb92 b4bd 4342 ee3d
00000160: e2c1 3ebe 9741 87be e399 0bbe a47f b7be
00000170: 1102 cdbd 7c57 b2be 8228 6c3d f450 35be
00000180: 1c7c 853d c9fc bfbe 8eb0 333e 48fa 843d
00000190: 535f 093e cc19 fb3d 212b fd3d 5528 233e
000001a0: 7d55 bbbe 18c6 a8be 8313 d83d a093 3a3e
000001b0: a766 aabe 1a74 3d3e 92b9 c4be 5291 f1be
000001c0: 5d01 f8be e2d1 89bd dec0 9abd 85c0 4c3d
000001d0: 07c3 fabe 66b6 8a3d 4ece d7be 3abc 4cbe
000001e0: fc6f 7d3e 5e6a 4abe 47b1 e2bd 8806 a0be
000001f0: 1e4c cebe 7649 1fbf 08dc 123e c008 04bf
00000200: b5e9 1cbe 711b 8d3e a97f 323e b1f7 47be
00000210: 9b36 a7be 9d4c c2be aae2 f53b 2db3 15be
00000220: e7f2 3cbe e0a4 92bd 95c3 243d 8cf3 b1bd
00000230: d8c9 33bd ef59 8abe 42cc c33d 0600 833d
00000240: 2995 0cbe 0ecc b4bd 9e6e 56be b507 dbbd
00000250: 312e 3bbe ca59 c8be c4f8 a2be 584d 6c3d
00000260: 8f2b ee3c b252 59bc 05b8 abbe 3d71 813b
00000270: d994 97be 5f85 70be 1a12 323b e583 19be
00000280: 6a01 7dbe e03d fbbd 17ee 04bf c4d3 9abd
00000290: 70b3 22be a666 67be a809 d63e 50a5 c1be
000002a0: 33fa 86be 1d61 1bbf ac16 83bd 4d38 033d
000002b0: afb4 a7bd e73f 93be a98c 0ebd 2874 55be
000002c0: b352 3dbe 86f6 bebd b321 a9be d35d 6ebe
000002d0: 5f58 583e 0bb6 57be 2523 8fbd fd49 cf3c
000002e0: b0e5 153d 5529 c6be c33d 873e cb83 96be
000002f0: 5057 6bbe eef3 febc 20b7 79be 3067 79bd
00000300: 57f9 4bbe 8249 a2be 9670 9cbe 559f 02be
00000310: 09ec 6cbc 7d7a c23d df5d 7cbe 033b f6bb
00000320: 1bd7 2abe 8f1d 31be 05a5 d2bc e1a0 24be
00000330: 475f d8bd 705d 6ebe c850 41be 05c9 24be
00000340: 7179 6bbe 26da 43bc 4576 163e 71c6 3dbe
00000350: dcc8 c6bd 2c4b 173d 2533 1dbe a6a8 06be
00000360: abd1 98bb 2a9f ccbd 07a7 933d 78b3 16bf
00000370: 6418 1e3d cb45 78bd f42f 16bf fc67 d83d
00000380: 62d1 fabd a7d5 a13d a3aa 11bd 878d 50be
00000390: e21f 41bc 84b1 29be 92b0 f7be fd19 18be
000003a0: 848a a1bd cdd4 c8be d6ec 90be b65f 06be
000003b0: b8b9 833c be25 4dbe 355a 21be 6b71 a3bd
000003c0: 3451 043e 37e2 fcbe 8352 76be f2fe 32be
000003d0: 8425 8dbe 7856 cabc 73af 7dbe c03a 903e
000003e0: f82d 5f3d 4960 04bf fc48 8fbe 175a 50bd
000003f0: 3059 d73d 8aca 95bd 0b02 cbbd ea71 c13d

bias_hh_l0 f4 [512]
-0.18171428 0.050306663 0.22760072 0.06873289 -0.2103779 -0.4972092 0.012394359 -0.23087803
-0.18444583 0.038535334 -0.31669462 -0.08208837 0.11492981 0.096267775 -0.48770642 -0.09732048
-0.053498965 -0.21410029 -0.09702597 0.104482666 -0.39943713 -0.097220026 -0.27844664 0.166024
0.029816253 0.007892918 -0.149853 0.2247364 -0.10416265 0.13958295 0.11618584 -0.34183306
-0.5075307 0.18653455 -0.26081505 0.18723713 0.13623944 -0.2911956 0.06057619 -0.4538068
-0.315007 -0.24419835 -0.2543409 -0.41324303 0.081887126 -0.41081482 0.042433415 -0.214015
-0.15012993 0.16292757 -0.2341356 0.10809896 -0.35654706 -0.4910122 -0.30540848 0.18266205
0.19191024 -0.42415228 0.010899131 -0.244948 -0.19977914 -0.0056299735 -0.25494656 -0.05730705
-0.22335126 -0.17855217 -0.33797026 0.14189613 -0.24480371 0.1275761 0.07252509 -0.047595266
0.13933606 -0.26453146 -0.3841627 0.15720315 -0.34309667 0.023394607 0.07197936 0.07607303
0.20084204 -0.602819 -0.3260719 -0.21122304 -0.21715836 -0.2722252 -0.029278418 0.10276797
-0.21477237 -0.19810762 -0.16579828 -0.39902058 -0.13609847 -0.29759228 -0.026274636 -0.27900025
0.070124716 -0.35606405 0.107285716 -0.07193753 0.15334176 0.19156943 0.1904769 0.2038072
-0.31011683 -0.34482077 0.039444886 0.14481115 -0.37004015 0.15093794 -0.2839535 -0.36596859
-0.45403248 -0.15532517 -0.121401936 0.028553957 -0.5255139 0.082542986 -0.39078656 -0.15481122
0.18120983 -0.1950274 -0.123723954 -0.42022616 -0.43034077 -0.5994103 0.10803476 -0.5521095
-0.15492716 0.33220744 0.19022979 -0.16090864 -0.38333392 -0.31136978 0.029285967 -0.14166933
-0.25286648 0.0033350391 0.09968452 -0.008283886 0.03967219 -0.18385887 0.043185532 0.042167053
-0.15946089 -0.07296905 -0.2848355 -0.1529042 -0.2479841 -0.31591517 -0.2897631 0.09041932
0.047814608 -0.05587539 -0.27597946 -0.069195084 -0.23505221 -0.08645724 0.026555233 -0.22550957
-0.21952143 -0.070335045 -0.5836707 -0.061414037 -0.12610033 -0.20572838 0.28300852 -0.40465033
-0.31444794 -0.56005824 -0.07477474 0.097607195 0.0036245342 -0.19662371 -0.15788202 -0.2300279
-0.07500347 -0.11062734 -0.35098466 -0.2378445 0.1997923 -0.18127201 -0.08887114 0.012666905
0.05245665 -0.4379854 0.28154367 -0.27069673 -0.31156147 -0.0740425 -0.23509404 -0.07867705
-0.0929725 -0.28221035 -0.28781047 -0.11226393 -0.062638335 0.12885404 -0.21836498 -0.087085366
-0.19063808 -0.09497458 0.016802507 -0.15254016 0.007794799 -0.22513038 -0.17945443 -0.1663893
-0.24436007 -0.12393649 0.16940778 -0.17209028 -0.022998516 0.043133818 -0.17322142 -0.0709793
0.04485942 -0.15725437 0.021030318 -0.5757176 -0.0011140206 -0.18807952 -0.45186836 0.12763041
-0.16623366 0.07855004 0.04651972 -0.30786967 0.15762648 -0.19125241 -0.4563448 -0.148917
-0.040190715 -0.36940712 -0.24417667 -0.14394675 -0.11313454 -0.11321611 -0.016395127 -0.032131303
0.07767428 -0.5771653 -0.23693278 -0.24493288 -0.28030095 -0.077196464 -0.34815046 0.30883646
-0.040061273 -0.42996934 -0.26808262 -0.059449937 0.112138964 -0.1148953 -0.106785156 -0.046667177
00000000: 4f13 3abe 5c0e 4e3d 2a10 693e d4c3 8c3d
00000010: 4e6d 57be 3492 febe b611 4b3c 4a6b 6cbe
00000020: 5edf 3cbe 3ad7 1d3d cc25 a2be f31d a8bd
00000030: 5260 eb3d 0a28 c53d a8b4 f9be f64f c7bd
00000040: bb21 5bbd 1b3d 5bbe 8db5 c6bd 02fb d53d
00000050: 0683 ccbe 4b1b c7bd 8f90 8ebe 3202 2a3e
00000060: 3741 f43c 4c51 013c 1173 19be 4d21 663e
00000070: 3a53 d5bd d5ee 0e3e d7f2 ed3d be04 afbe
00000080: 88ed 01bf ea02 3f3e 8d89 85be 17bb 3f3e
00000090: 5a82 0b3e 9717 95be bd1e 783d 5d59 e8be
000000a0: 9948 a1be 220f 7abe f838 82be 9794 d3be
000000b0: 70b4 a73d 5256 d2be a9ce 2d3d c026 5bbe
000000c0: a9bb 19be 7cd6 263e 3ec1 6fbe fd62 dd3d
000000d0: 568d b6be f365 fbbe 805e 9cbe c30b 3b3e
000000e0: 1e84 443e 7d2a d9be 4592 323c a6d3 7abe
000000f0: e792 4cbe a47b b8bb 5b88 82be ccba 6abd
00000100: 31b6 64be 61d6 36be 700a adbe 384d 113e
00000110: d3ad 7abe 4fa3 023e 0988 943d 41f3 42bd
00000120: 1dae 0e3e ab70 87be f9b0 c4be ddf9 203e
00000130: 5eaa afbe 0ca6 bf3c ea69 933d 2dcc 9b3d
00000140: 89a9 4d3e 5952 1abf e5f2 a6be da4a 58be
00000150: c35e 5ebe 1a61 8bbe 4bd9 efbc 0378 d23d
00000160: 4aed 5bbe b9dc 4abe 06c7 29be 6d4c ccbe
00000170: 665d 0bbe 045e 98be e83d d7bc 1fd9 8ebe
00000180: 8c9d 8f3d 074e b6be 9db8 db3d fc53 93bd
00000190: 9f05 1d3e c72a 443e 600c 433e d6b2 503e
000001a0: a2c7 9ebe 598c b0be f690 213d 6049 143e
000001b0: e775 bdbe 7a8f 1a3e 5a62 91be 3c60 bbbe
000001c0: f276 e8be 900d 1fbe 94a1 f8bd fde9 e93c
000001d0: 1488 06bf 4c0c a93d 2d15 c8be d586 1ebe
000001e0: 128f 393e 43b5 47be fc62 fdbd e227 d7be
000001f0: a055 dcbe f472 19bf 5441 dd3d 0c57 0dbf
00000200: 3aa5 1ebe 1817 aa3e 99cb 423e 3cc5 24be
00000210: 5844 c4be dc6b 9fbe 20e9 ef3c c411 11be
00000220: b777 81be ac90 5a3b 6627 cc3d 23b9 07bc
00000230: 4e7f 223d 8045 3cbe 50e3 303d 5cb7 2c3d
00000240: b749 23be cc70 95bd f5d5 91be eb92 1cbe
00000250: 8bef 7dbe a2bf a1be d45b 94be c42d b93d
00000260: 40d9 433d 98dd 64bd 2e4d 8dbe 27b6 8dbd
00000270: 87b1 70be 7e10 b1bd 5c8a d93c fbeb 66be
00000280: 3aca 60be d20b 90bd 716b 15bf 498d 7bbd
00000290: 7220 01be 76aa 52be 7ee6 903e 542e cfbe
000002a0: 52ff a0be fa5f 0fbf 8023 99bd 48e6 c73d
000002b0: 9889 6d3b ba57 49be d3ab 21be 6f8c 6bbe
000002c0: 6b9b 99bd 9690 e2bd 43b4 b3be 828d 73be
000002d0: 5a96 4c3e 5f9f 39be 1202 b6bd da88 4f3c
000002e0: c9dc 563d 9f3f e0be 7e26 903e c398 8abe
000002f0: fc84 9fbe 98a3 97bd 7ebc 70be 6f21 a1bd
00000300: 5e68 bebd e07d 90be e55b 93be a2ea e5bd
00000310: 8748 80bd 50f2 033e 129b 5fbe d059 b2bd
00000320: a136 43be 0882 c2bd 69a5 893c 7d33 1cbe
00000330: 836b ff3b 9488 66be e7c2 37be f561 2abe
00000340: 8739 7abe 6ad2 fdbd 3c79 2d3e 6f38 30be
00000350: 6267 bcbc 16ad 303d f560 31be 985d 91bd
00000360: 83be 373d 4a07 21be c647 ac3c 3b62 13bf
00000370: 5404 92ba eb97 40be 4a5b e7be 8cb1 023e
00000380: 2839 2abe d8de a03d 768b 3e3d 18a1 9dbe
00000390: d668 213e acd7 43be 07a6 e9be b37d 18be
000003a0: 059f 24bd ee22 bdbe 7309 7abe c766 13be
000003b0: 15b3 e7bd d9dd e7bd 134f 86bc 1d9c 03bd
000003c0: b113 9f3d 1bc1 13bf 829e 72be afcf 7abe
000003d0: 9b83 8fbe 2e19 9ebd c740 b2be d01f 9e3e
000003e0: 4a17 24bd f124 dcbe 2042 89be c781 73bd
000003f0: 1da9 e53d 3a4e ebbd 2db2 dabd 1526 3fbd
