models/radar_cnn_lstm.pth (torch, 499737 bytes, 20 tensors)

cnn.net.0.weight f4 [16, 1, 3, 3]
0	0x3deec5e3	0.11658838
1	0x3f047848	0.51746035
2	0x3e80d09e	0.25159162
3	0xbecd4d0f	-0.40097854
4	0x3e970ef9	0.2950361
5	0x3ef0a343	0.4699956
6	0xbedf18eb	-0.43573698
7	0xbe1f66c6	-0.15566549
8	0x3dba5df8	0.09099954
9	0x3e2d2ae0	0.16910887
10	0xbc178c9c	-0.0092498325
11	0xbeb6f3af	-0.3573279
12	0xbeaaecbb	-0.33383736
13	0xbe38bb42	-0.18040183
14	0x3ea26947	0.31720945
15	0xbea705cf	-0.3262162
16	0x3e596bd7	0.21232544
17	0x3f3521c1	0.7075463
18	0x3eb2ff19	0.3496025
19	0xbf02ffb1	-0.51171404
20	0x3cbbace2	0.022909585
21	0x3eb54ed2	0.35411698
22	0xbec3672a	-0.38164645
23	0x3e78a7ad	0.24282713
24	0xbd3b95ef	-0.045797285
25	0xbf05e62a	-0.5230433
26	0xbe82a678	-0.2551763
27	0x3efcab57	0.49349472
28	0x3e94134d	0.28920975
29	0xbeae58df	-0.34052178
30	0xbe3872ab	-0.18012492
31	0xbef4e32d	-0.4782957
32	0xbf0dcbd8	-0.55389166
33	0x3e1ea655	0.15493138
34	0x3d6f89ca	0.058481015
35	0xbc4d972d	-0.01254825
36	0x3e77d8ea	0.2420384
37	0x3f4f3951	0.8094683
38	0xbddbc374	-0.10730639
39	0xbdd23242	-0.10263492
40	0x3f2518a7	0.6449074
41	0x3b8deb8a	0.004331057
42	0x3e14bbb9	0.14524736
43	0x3ef100b3	0.47070846
44	0xbccd7278	-0.025078997
45	0xbcdc935c	-0.026925735
46	0xbe94ef44	-0.29088795
47	0xbf0efd8b	-0.55855626
48	0xbebbdbc5	-0.36691108
49	0x3e87fd17	0.2656028
50	0x3ec3742b	0.38174567
51	0xbee4f0ff	-0.44715115
52	0x3c36f687	0.011167175
53	0x3ebe48f1	0.37165025
54	0x3ee5eb3a	0.44906026
55	0x3ea58d59	0.32334402
56	0xbecbd47d	-0.39810553
57	0xbe283c32	-0.16429213
58	0xbec3b0c9	-0.38220814
59	0xbe232f3e	-0.1593599
60	0xbe411dd3	-0.18859033
61	0xbf177dbc	-0.5917623
62	0xbeaebff0	-0.34130812
63	0xbe6daf31	-0.23211361
64	0xbe50a0c8	-0.20373833
65	0xbe81ca54	-0.25349677
66	0x3db63d18	0.088983715
67	0xbd8f9203	-0.070102714
68	0x3eb44840	0.35211372
69	0xbee88017	-0.45410225
70	0xbded017c	-0.11572549
71	0x3ed80962	0.4219466
72	0xbe88b51d	-0.26700678
73	0x3dc985a2	0.098399416
74	0x3ea86c16	0.32894963
75	0x3e425767	0.18978654
76	0xbdc6e7c1	-0.09712172
77	0xbe61d1b1	-0.22052647
78	0xbf245275	-0.6418832
79	0x3eb9c199	0.36280516
80	0x3eb8f7cc	0.36126554
81	0xbecebffd	-0.4038085
82	0xbf170471	-0.5899115
83	0x3e050f74	0.12994176
84	0x3e8dc5cb	0.27689967
85	0x3edac1c1	0.42725947
86	0x3d85d82b	0.065353714
87	0xbdf1ccc0	-0.11806631
88	0xbe8667b3	-0.2625099
89	0xbe67d0d7	-0.2263826
90	0xbe23ecaa	-0.16008249
91	0xbdd7ce25	-0.10537366
92	0x3f35ec8c	0.71064067
93	0xbd9b1db5	-0.075740255
94	0x3d810ca4	0.06301239
95	0xbe82f36c	-0.2557634
96	0xbdcf595d	-0.101244666
97	0x3e2a6783	0.16641049
98	0xbee5f359	-0.44912222
99	0xbeb74341	-0.35793498
100	0x3ea85e08	0.3288424
101	0x3e544155	0.20728047
102	0xbf23dae2	-0.64005864
103	0xbe2b87ba	-0.16750994
104	0x3dccee1a	0.10006352
105	0xbf30afcd	-0.6901825
106	0xbd089fbc	-0.03335546
107	0x3eb8c3f9	0.36087015
108	0xbe972f56	-0.29528302
109	0xbe637574	-0.22212774
110	0xbe332719	-0.17495383
111	0x3f01dbf5	0.5072625
112	0x3e0e30b8	0.13885772
113	0xbecdd144	-0.4019872
114	0x3ed2ece5	0.4119636
115	0x3d2a4b3f	0.041575667
116	0xbeda19d3	-0.42597827
117	0xbf1722ed	-0.5903767
118	0xbe36a48c	-0.17836207
119	0xbe8d3ec9	-0.27586964
120	0x3f020fee	0.50805557
121	0xbe14098e	-0.1445677
122	0xbb4bc4cd	-0.0031092644
123	0xbec864fa	-0.3913954
124	0x3e657c6d	0.22410746
125	0x3e3e1ad0	0.18564916
126	0x3d511910	0.051049292
127	0xbd1ddab1	-0.03853864
128	0xbed6eed6	-0.41979092
129	0x3eefcf4c	0.46837842
130	0xbf2bc0a2	-0.6709081
131	0x3e3e0900	0.1855812
132	0xbe0cf215	-0.13764222
133	0x3e85638a	0.26052505
134	0xbcfd243f	-0.030901073
135	0x3e9b3781	0.30315784
136	0x3db233b9	0.087012716
137	0xbeba4dfb	-0.3638762
138	0xbf190f41	-0.597889
139	0xbc80510f	-0.015663652
140	0x3edbb09b	0.42908177
141	0xbe860dd5	-0.26182428
142	0x3ee62bc6	0.4495527
143	0xbec6b3ed	-0.38809147

cnn.net.0.bias f4 [16]
0	0xbf2dce8d	-0.67893296
1	0xbe117627	-0.14205228
2	0x3edd1e41	0.43187144
3	0xbebbd590	-0.36686373
4	0xbedd2f9d	-0.4320039
5	0xbe9fb357	-0.31191513
6	0xbe561b93	-0.20908956
7	0x3e9c611e	0.30542845
8	0x3f07d088	0.5305257
9	0x3e89f8c5	0.2694761
10	0x3e02cdbc	0.12773794
11	0xbe3cc4c8	-0.18434441
12	0xbec91812	-0.39276177
13	0xbdb35081	-0.08755589
14	0xbb6714a3	-0.0035260103
15	0xbbc71eec	-0.006076684

cnn.net.1.weight f4 [16]
0	0x3f29a56b	0.6626803
1	0x3f466085	0.7749103
2	0x3f8f2026	1.1181686
3	0x3fb61f8e	1.422838
4	0x3f2b2c42	0.6686441
5	0x3fa3ea0c	1.28058
6	0x3f7d67f9	0.98986775
7	0x3f3ca941	0.7369576
8	0x3f2f9c50	0.6859789
9	0x3fa9707c	1.3237453
10	0x3fba7811	1.4567891
11	0x3f876127	1.0576524
12	0x3fb23d10	1.3924885
13	0x3f90ebd7	1.1321973
14	0x3f605d74	0.876426
15	0x3f83ec41	1.0306474

cnn.net.1.bias f4 [16]
0	0xbedd2925	-0.43195453
1	0xbf07ad67	-0.52998966
2	0xbe606d52	-0.21916702
3	0xbbab1740	-0.0052212775
4	0xbf3dabb3	-0.7409012
5	0xbeffd48e	-0.49966854
6	0xbe0b4c7a	-0.13603392
7	0xbdac8a51	-0.08424819
8	0xbd40c573	-0.047063302
9	0x3cbf3471	0.023340436
10	0xbf18c39f	-0.59673494
11	0xbe2884de	-0.16456935
12	0xbe11810e	-0.14209387
13	0xbe65754b	-0.22408025
14	0xbeb5d4b1	-0.35513833
15	0xbe3d267f	-0.18471716

cnn.net.1.running_mean f4 [16]
0	0xbf1117ce	-0.5667695
1	0xbde8e29a	-0.11371346
2	0x3ea8808f	0.32910582
3	0xbeedf4c4	-0.46475804
4	0xbe0268d0	-0.12735295
5	0xbecdadbe	-0.40171617
6	0xbedab130	-0.42713308
7	0x3e7a3105	0.24432762
8	0x3f0b8f4d	0.54515535
9	0x3e358c54	0.17729312
10	0x3dc086a7	0.09400683
11	0xbea42bdd	-0.32064715
12	0xbee61a0c	-0.44941747
13	0xbe36472a	-0.17800584
14	0xbd547ba1	-0.051875714
15	0xbd741889	-0.05959371

cnn.net.1.running_var f4 [16]
0	0x3d54be37	0.051939216
1	0x3c871e86	0.016494047
2	0x3ca8a553	0.020586645
3	0x3cf67113	0.030083215
4	0x3da710f7	0.08157533
5	0x3cb8eeb9	0.02257477
6	0x3db4e189	0.0883208
7	0x3c4491af	0.011997624
8	0x3b2462db	0.0025083337
9	0x3c79c896	0.015245577
10	0x3c8a7761	0.016902627
11	0x3d049131	0.032365028
12	0x3c890336	0.016725164
13	0x3cf7a6fd	0.030230993
14	0x3c0d7093	0.008632797
15	0x3bc5fe9d	0.006042315

cnn.net.4.weight f4 [32, 16, 3, 3]
0	0xbc9bf236	-0.019036394
1	0xbca29300	-0.019845486
2	0x3d0a2b38	0.033732623
3	0x3cd7533a	0.026284803
4	0xbe3119dd	-0.17295022
5	0xbd9c3829	-0.07627899
6	0x3e84c4b2	0.25931317
7	0x3e85a6ad	0.26103726
8	0x3d54260e	0.051794104
9	0x3e510bf7	0.2041472
10	0xbecab410	-0.39590502
11	0x3e2fc31b	0.1716427
12	0xbcad1c94	-0.021131791
13	0x3e65492a	0.22391191
14	0xbe4f1251	-0.20221831
15	0x3d30ac1e	0.043132894
16	0xbdadb8df	-0.08482527
17	0x3e44d735	0.1922272
18	0xbd72b45a	-0.059254028
19	0xbda4b62f	-0.08042561
20	0xbf342fb3	-0.70385283
21	0xbf0b3949	-0.54384285
22	0xbf1daabe	-0.61588657
23	0xbd671944	-0.05642058
24	0x3e46c4ff	0.19411086
25	0x3efdc14c	0.49561536
26	0x3ebe5378	0.37173057
27	0x3dbfd3ec	0.09366593
28	0x3e0a4141	0.13501455
29	0x3f42baa1	0.76066023
30	0x3d92f553	0.07175698
31	0xbc8b1310	-0.016976863
32	0xbe6a16c4	-0.22860247
33	0xbe3bea5a	-0.18351117
34	0xbec792c8	-0.38979173
35	0x3d199ba1	0.037501935
36	0xbcce5d54	-0.025190987
37	0x3e08ff49	0.13378634
38	0x3ddf8ce0	0.10915542
39	0x3df58889	0.11988933
40	0x3e17df0a	0.14831176
41	0xbd9dea53	-0.077107094
42	0x3d8e8dcb	0.069606386
43	0x3d8b7348	0.068090975
44	0xbd9ecefa	-0.077543214
45	0x3ea248d2	0.31696182
46	0xbe0a1d7a	-0.13487807
47	0xbe95bd31	-0.29245904
48	0xbe561110	-0.20904946
49	0xbcbc5a7a	-0.022992361
50	0x3e9b5659	0.30339316
51	0x3e831266	0.25599974
52	0x3f18da9a	0.5970856
53	0x3e338779	0.17532147
54	0x3e54565f	0.20736073
55	0x3e3694db	0.17830221
56	0x3deea89f	0.11653256
57	0xbd275164	-0.040849105
58	0x3d7d93d6	0.061908565
59	0xbd8fda59	-0.070240684
60	0xbe4cd248	-0.20002091
61	0xbdb644a3	-0.0889981
62	0x3dc67fb4	0.09692326
63	0x3db260fe	0.08709906
64	0xbdb2e2b5	-0.08734647
65	0xbe015c70	-0.12632918
66	0xbe8c4ef6	-0.27403992
67	0x3d1595e2	0.036519893
68	0xbd610725	-0.054938454
69	0xbcd90c2d	-0.026495064
70	0x3e48e43d	0.19618316
71	0xbe847d02	-0.25876623
72	0xbebab8e3	-0.36469182
73	0x3e62e4be	0.2215757
74	0x3e356d3e	0.17717454
75	0x3e2c9081	0.16851999
76	0xbea2c718	-0.3179252
77	0xbe0aabd0	-0.13542104
78	0xbe53f74f	-0.2069981
79	0x3eac0228	0.33595395
80	0x3de755ee	0.11295687
81	0x3e3e6b11	0.1859553
82	0x3ef32ad5	0.47493616
83	0xbd97f1b5	-0.07419149
84	0xbe2428fc	-0.1603126
85	0x3c4a4e90	0.012347832
86	0x3f8ba653	1.0910133
87	0xbe2e42fd	-0.17017742
88	0xbd0dc663	-0.034613024
89	0xbeefa30d	-0.46804085
90	0xbd9bd4c4	-0.07608941
91	0xbdb39bc3	-0.087699436
92	0x3e98961c	0.29802024
93	0x3e710df8	0.23540485
94	0xbb58f633	-0.003310573
95	0xbe1ccf0b	-0.15313356
96	0xbd91eb16	-0.07124917
97	0x3f13b462	0.5769712
98	0x3f1f9c7b	0.62348145
99	0x3d02d18f	0.031938132
100	0xbc031837	-0.008001379
101	0xbd540f42	-0.051772363
102	0xbe8ddba8	-0.27706647
103	0xbeabe28d	-0.33571282
104	0xbefe3af5	-0.49654356
105	0xbe477dd2	-0.1948159
106	0xbe5cb94f	-0.21555065
107	0xbd2cde51	-0.042204205
108	0x3e461c06	0.19346628
109	0x3e28c7a0	0.16482401
110	0xbe6f63dc	-0.23377937
111	0xbf34733a	-0.7048832
112	0xbee1c76f	-0.44097468
113	0xbc715a09	-0.014730939
114	0x3df757d4	0.12077299
115	0xbe6487ae	-0.22317383
116	0xbeb8f013	-0.36120662
117	0x3e8874ff	0.2665176
118	0x3f41df1e	0.75731075
119	0x3ebda5d3	0.37040576
120	0x3e186af5	0.14884551
121	0xbc599623	-0.013280424
122	0x3edcff19	0.43163374
123	0xbdbefbaf	-0.093253486
124	0x3e76c81d	0.24099775
125	0x3e1f36bf	0.15548228
126	0x3c15f041	0.009151519
127	0xbd4ca66a	-0.049963392
128	0x3f108207	0.56448406
129	0xbda08bec	-0.07839188
130	0x3d423386	0.047412418
131	0xbeab93f4	-0.33511317
132	0xbea3b68c	-0.3197521
133	0xbebb3d09	-0.36570004
134	0xbe41a09a	-0.18908921
135	0xbc30ebc3	-0.0107983975
136	0xbf176217	-0.5913405
137	0xbf3aa1e0	-0.7290325
138	0xbe0cd0fd	-0.13751598
139	0x3e0757b8	0.13217056
140	0x3eaddc1b	0.3395699
141	0x3e14c911	0.14529826
142	0xbf042cc8	-0.5163083
143	0x3d405201	0.046953205
144	0xbd0b148e	-0.03395515
145	0xbd73c282	-0.05951167
146	0x3e8397b0	0.25701666
147	0x3d8a62ee	0.067571506
148	0x3e1505fb	0.14553063
149	0x3e6b2773	0.22964267
150	0xbe101d09	-0.14073576
151	0xbde704e4	-0.1128023
152	0x3e8fcae8	0.28084493
153	0xbe0fcb8c	-0.1404249
154	0x3ed6e14c	0.41968763
155	0x3e79a59b	0.2437958
156	0xbe8cf19e	-0.2752809
157	0x3e17506c	0.14776772
158	0x3e357274	0.17719442
159	0xbe35197a	-0.176855
160	0x3e30a86b	0.17251746
161	0x3e8095d6	0.25114316
162	0xbe86e13a	-0.2634371
163	0x3e6970e1	0.22796966
164	0x3db49a78	0.08818525
165	0xbd9aa620	-0.07551217
166	0x3e93cbec	0.28866518
167	0x3dd34ae3	0.10317018
168	0xbde8ad0e	-0.113611326
169	0x3ed44467	0.41458437
170	0xbe8edb7a	-0.27901822
171	0x3deed76e	0.11662184
172	0x3e82c8d0	0.25543833
173	0x3e611b9c	0.21983188
174	0xbe6b1fc6	-0.2296134
175	0xbe78eae9	-0.24308361
176	0xbe95215c	-0.29127014
177	0xbeaff389	-0.3436549
178	0xbe43e906	-0.1913186
179	0xbe83e260	-0.25758648
180	0xbdbeb3bc	-0.09311625
181	0xbe8a6351	-0.27028897
182	0x3e100ae2	0.14066651
183	0xbe317dca	-0.17333141
184	0xbec6774c	-0.3876289
185	0x3e1eb465	0.15498503
186	0xbd8429b3	-0.06453266
187	0xbe998b92	-0.29989296
188	0x3e613d5c	0.21996063
189	0xbe2f6842	-0.17129615
190	0x3ed65573	0.41862068
191	0x3b6188c9	0.0034413806
192	0xbddee9b2	-0.108844176
193	0x3ed44ecc	0.41466367
194	0xbd762b39	-0.060099814
195	0x3e370905	0.17874534
196	0x3e8798a6	0.2648365
197	0x3e0d2f6c	0.13787621
198	0xbe801905	-0.25019088
199	0xbee736c8	-0.45158982
200	0xbe4131d6	-0.18866667
201	0x3dba2c97	0.09090536
202	0xbe6cb329	-0.23115219
203	0x3e15bbfd	0.14622493
204	0x3f2e9cb7	0.6820788
205	0x3e8e1705	0.27751938
206	0x3f2975cd	0.66195375
207	0xbe723e0e	-0.23656484
208	0x3eaf1fd7	0.3420398
209	0xbd61fa6c	-0.05517046
210	0xbe744db0	-0.2385776
211	0x3ea25b33	0.31710204
212	0xbdc75679	-0.0973329
213	0xbeb96679	-0.36210993
214	0x3d6bec82	0.0575986
215	0x3e83d1e8	0.25746083
216	0xbe8ae0bd	-0.27124587
217	0x3e01c63f	0.12673281
218	0x3d8be0df	0.0683
219	0xbeb3b481	-0.3509865
220	0x3dd3e233	0.103458785
221	0xbc87daa8	-0.016583756
222	0xbf1bf299	-0.6091705
223	0xbe5590f2	-0.20856073
224	0xbe52a99d	-0.20572515
225	0xbf2ad93b	-0.6673772
226	0xbe471759	-0.194425
227	0xbf1d59cc	-0.61465144
228	0xbf1e8dea	-0.61935294
229	0xbe8d50e8	-0.2760079
230	0xbf264a1e	-0.64956844
231	0xbef1242f	-0.47097918
232	0xbf237250	-0.638463
233	0xbf03a604	-0.51425195
234	0xbee0bfc5	-0.4389631
235	0xbf04910b	-0.5178382
236	0xbe5d3074	-0.21600515
237	0xbe38f4c5	-0.18062122
238	0x3e27b91c	0.16379207
239	0x3e1f6b03	0.15568165
240	0x3d7deb43	0.06199194
241	0x3f0e549e	0.55597866
242	0x3e91ff7b	0.2851523
243	0x3d3d32e2	0.046191104
244	0x3e266424	0.16249138
245	0x3d9e3c38	0.077263296
246	0xbd07cbaa	-0.033153214
247	0xbe863fab	-0.2622045
248	0xbea049d3	-0.31306323
249	0x3dfb55f1	0.122722514
250	0x3dc1a0e0	0.094545126
251	0x3e3ca3d2	0.18421867
252	0x3f156bf1	0.5836783
253	0x3ddb5b2c	0.10710749
254	0x3b87337d	0.004126011
255	0x3eedce8b	0.46446642

cnn.net.4.bias f4 [32]
0	0xbf643c18	-0.89154196
1	0x3ebbf0c3	0.36707124
2	0xbe325064	-0.17413479
3	0xbe712f61	-0.2355323
4	0xbf3d9956	-0.740621
5	0xbbda79e6	-0.0066673635
6	0x3e0a38b0	0.13498187
7	0xbe8c5219	-0.27406386
8	0xbf6b846e	-0.91998947
9	0x3e185b68	0.14878619
10	0xbec87872	-0.39154392
11	0xbc43726f	-0.011929139
12	0x3ec123c7	0.37722608
13	0x3dc07187	0.093966536
14	0xbf105a70	-0.56387997
15	0xbe8fa681	-0.2805672
16	0xbf450b66	-0.7697052
17	0x3f063b59	0.5243431
18	0x3f12ccca	0.57343733
19	0x3e7c3be6	0.24632224
20	0x3d2f3a2a	0.04278008
21	0x3f32ec60	0.6989193
22	0xbeaae606	-0.3337862
23	0x3f0e33a2	0.55547535
24	0xbecfce3c	-0.40587032
25	0x3e973f4d	0.29540482
26	0xbf4c0e21	-0.7970906
27	0xbdea9ddd	-0.11455891
28	0xbef62833	-0.48077545
29	0xbebabb6e	-0.36471123
30	0xbf29564e	-0.66147316
31	0x3d92bef8	0.07165331

cnn.net.5.weight f4 [32]
0	0x3f79c227	0.9756188
1	0x3f8563f4	1.0421128
2	0x3f7f6712	0.9976665
3	0x3f6b9a2d	0.9203213
4	0x3f79f7ce	0.97643745
5	0x3f8d15ec	1.1022315
6	0x3fa16b35	1.2610842
7	0x3f806922	1.0032084
8	0x3f6c9368	0.92412424
9	0x3f82240b	1.016725
10	0x3f969c60	1.1766472
11	0x3f970c5b	1.1800646
12	0x3f9fb475	1.2476946
13	0x3f755229	0.9582849
14	0x3f75c950	0.96010303
15	0x3fabb8ea	1.3415806
16	0x3fc42161	1.5322686
17	0x3f9e176f	1.2350901
18	0x3f8f2efa	1.1186211
19	0x3f8af40a	1.0855725
20	0x3f83cc70	1.0296764
21	0x3fa6e014	1.3037133
22	0x3f97bcfd	1.185455
23	0x3f9a2f29	1.2045642
24	0x3fa8c4d1	1.3185064
25	0x3f910fee	1.1332986
26	0x3f9e863d	1.2384716
27	0x3f75bd47	0.9599194
28	0x3f993869	1.197034
29	0x3fa139ee	1.2595804
30	0x3fa9785e	1.3239858
31	0x3f7b6c72	0.9821235

cnn.net.5.bias f4 [32]
0	0xbe3e1666	-0.18563232
1	0xbed41b60	-0.41427135
2	0xbe1a665a	-0.15078107
3	0xbe349780	-0.17635918
4	0xbe074314	-0.13209182
5	0xbf76bd0c	-0.9638221
6	0xbf06d7a2	-0.5267278
7	0xbf27710c	-0.6540687
8	0xbe86abd9	-0.26302984
9	0xbea273b3	-0.31728896
10	0xbf4f1568	-0.8089204
11	0xbe34abbf	-0.17643641
12	0xbea8c34d	-0.32961503
13	0xbecbb1ce	-0.39784092
14	0xbe7c6df0	-0.24651313
15	0xbcfc55dd	-0.030802662
16	0x3d405727	0.046958115
17	0xbe8b13ba	-0.27163488
18	0xbeba0167	-0.36329195
19	0xbf0e53da	-0.555967
20	0xbe808099	-0.25098112
21	0xbed8d5b9	-0.42350557
22	0xbe83375f	-0.25628182
23	0xbeee83f6	-0.46585053
24	0xbf1f7682	-0.62290204
25	0xbe861b31	-0.2619262
26	0xbe55c2d3	-0.20875101
27	0xbeddb313	-0.43300685
28	0xbe82e391	-0.25564244
29	0xbe803de1	-0.2504721
30	0xbf1d1881	-0.61365515
31	0xbe65c6dc	-0.2243914

cnn.net.5.running_mean f4 [32]
0	0xbf896795	-1.0734736
1	0xbfea2e95	-1.8295466
2	0x3fc05256	1.5025127
3	0x402637d9	2.5971587
4	0x3ee160bb	0.44019112
5	0x3fc39554	1.5279946
6	0xbf749f04	-0.9555514
7	0x3f3e3f51	0.74315363
8	0xbfdfcd1a	-1.7484467
9	0x3dbec2d5	0.09314505
10	0x3f177093	0.5915615
11	0x3e001597	0.12508236
12	0x409c5d1f	4.8863673
13	0x404c1241	3.1886141
14	0x3ef197a8	0.47186017
15	0xbfb55149	-1.4165431
16	0xc082606d	-4.0742707
17	0x3fd1028e	1.6328905
18	0x40451415	3.0793507
19	0xbeffef39	-0.499872
20	0x3f5388cd	0.82630616
21	0x3ebe819d	0.37208262
22	0xc026ecde	-2.6082072
23	0xbef0cdad	-0.47031918
24	0xbe4cfb99	-0.20017852
25	0x3f44ed6e	0.7692479
26	0xbf99f0e0	-1.2026634
27	0xbdae6aa0	-0.08516431
28	0x3fb81ff0	1.4384747
29	0x3f7cb273	0.9870979
30	0x3f3267dc	0.69689727
31	0xc0a8c72a	-5.274312

cnn.net.5.running_var f4 [32]
0	0x40849a7c	4.143858
1	0x408d460b	4.4148
2	0x411b5e62	9.710543
3	0x4123c741	10.236146
4	0x40e7509b	7.2285895
5	0x4015b05f	2.3388898
6	0x409adcbc	4.839445
7	0x40633061	3.5498278
8	0x4098370a	4.7567186
9	0x40f26d80	7.5758667
10	0x400f91e4	2.2432795
11	0x414b248d	12.696424
12	0x40cc8b0b	6.391973
13	0x40bc7ce1	5.890244
14	0x40854987	4.1652255
15	0x413a0ccf	11.628127
16	0x412b074a	10.68928
17	0x40ecea11	7.4035726
18	0x409b255e	4.8483114
19	0x409946c9	4.789891
20	0x40f76b19	7.7318234
21	0x40bf21d3	5.972879
22	0x40e951f1	7.2912526
23	0x40a19e22	5.0505533
24	0x40494222	3.1446614
25	0x40ddb630	6.9284897
26	0x40c1f53f	6.0611873
27	0x40bb61ef	5.855705
28	0x40a81fc0	5.2538757
29	0x4086ee75	4.2166085
30	0x4003f50e	2.061832
31	0x410fe597	8.993552

cnn.net.8.weight f4 [64, 32, 3, 3]
0	0xbea4fe49	-0.32225254
1	0x3e81f196	0.25379628
2	0x3e6fe79d	0.23428197
3	0xbe8c269a	-0.273732
4	0xbdf997aa	-0.12187131
5	0x3e3d9951	0.18515517
6	0xbe8786f8	-0.2647016
7	0xbe4f63b8	-0.20252883
8	0x3e86de19	0.26341322
9	0xbea83d32	-0.32859188
10	0xbd2f7ea3	-0.04284538
11	0x3da7c2cb	0.08191451
12	0xbee1ba17	-0.44087288
13	0x3d90e75b	0.070753776
14	0x3d058c87	0.03260472
15	0xbf002087	-0.5004963
16	0xbc884c2e	-0.016637888
17	0x3e0a24fe	0.13490674
18	0xbec9165d	-0.39274874
19	0xbe400e44	-0.18755442
20	0x3e6354cc	0.22200316
21	0xbedcab4d	-0.43099442
22	0xbd8bfe9a	-0.06835671
23	0x3d799d3d	0.06094097
24	0xbee8e229	-0.45485047
25	0xbe7aefca	-0.24505535
26	0x3df1c65c	0.11805412
27	0x3e442c76	0.19157586
28	0xbe5d7e05	-0.21630104
29	0xbee5e0ae	-0.4489798
30	0xbd94bbb4	-0.07262364
31	0x3dd5cbd7	0.1043927
32	0x3de0fcba	0.10985704
33	0x3d2294c3	0.03969265
34	0xbc80cbe3	-0.01572222
35	0x3bfe1baf	0.007754765
36	0x3e032e49	0.12810625
37	0xbd6ca02e	-0.057769947
38	0xbe9a21b1	-0.3010383
39	0x3d86223d	0.06549499
40	0x3c2eb397	0.010662935
41	0xbe4eefa8	-0.20208609
42	0x3e3a5e3d	0.18200012
43	0xbe830ed3	-0.25597247
44	0xbf2508ee	-0.6446675
45	0xbe9d2109	-0.30689266
46	0x3da421fc	0.080142945
47	0x3e04cf2a	0.12969652
48	0xbebe9f79	-0.37231043
49	0xbe6c045d	-0.2304854
50	0xbcf170fe	-0.029472824
51	0xbf3af3e1	-0.7302838
52	0xbe5da6e1	-0.2164569
53	0xbd987e5f	-0.074459784
54	0x3e8d2091	0.2756391
55	0x3d8f7453	0.07004609
56	0xbe61f327	-0.22065412
57	0x3ea7038c	0.32619894
58	0x3dca8ba4	0.098899156
59	0xbd97d54d	-0.07413731
60	0x3eb32afe	0.34993738
61	0x3da9df92	0.08294596
62	0x3df3cd07	0.1190434
63	0xbf06f736	-0.52720964
64	0xbef30297	-0.47462913
65	0xbe999abc	-0.30000865
66	0xbf106cb5	-0.56415874
67	0xbee63a91	-0.44966558
68	0xbe34c4c7	-0.1765319
69	0xbf3b8ee4	-0.7326491
70	0xbf5799ed	-0.8421925
71	0xbec118af	-0.37714145
72	0xbea154ba	-0.31509954
73	0xbe087612	-0.1332629
74	0x3e77f79a	0.24215546
75	0xbeb956e3	-0.36199102
76	0xbc1b68e3	-0.009485456
77	0xbd0e9a93	-0.034815382
78	0xbeedf8a9	-0.46478775
79	0xbe61942c	-0.2202918
80	0xbd5fbfa8	-0.054626137
81	0x3d4241f4	0.04742618
82	0xbeb3d5a1	-0.35123923
83	0xbef9e568	-0.48807836
84	0x3e3b81a5	0.18311174
85	0x3b105bb0	0.0022027306
86	0xbf1c8070	-0.6113348
87	0x3ec0ad8f	0.37632415
88	0x3d3c4db3	0.045972537
89	0xbed39180	-0.41321945
90	0xbd94cfec	-0.072662205
91	0xbd523a49	-0.051325116
92	0x3c7aeb8c	0.015314948
93	0xbf0aef56	-0.5427145
94	0xbd4285f5	-0.047491033
95	0x3dfc2ddc	0.123134345
96	0xbf0a0776	-0.53917634
97	0xbda80fd1	-0.08206142
98	0xbdea2303	-0.11432459
99	0x3ebe9937	0.3722627
100	0xbed02465	-0.40652767
101	0xbf645da4	-0.89205384
102	0x3ea56fe3	0.32311925
103	0xbeca38b2	-0.3949638
104	0xbf163f03	-0.586899
105	0x3ee18fa9	0.44054917
106	0xbe1092a2	-0.14118436
107	0xbee94705	-0.45561996
108	0xbb4c81a0	-0.0031205192
109	0xbe82e093	-0.25561962
110	0x3df6960d	0.12040339
111	0xbe8a6921	-0.27033332
112	0xbf0790ac	-0.52955127
113	0xbc452384	-0.012032393
114	0xbe876dda	-0.26450998
115	0xbf3044e2	-0.68855107
116	0xbe5d71ef	-0.21625493
117	0x3e91b27f	0.28456494
118	0xbf0860c7	-0.5327267
119	0x3e15fca1	0.14647152
120	0x3f047f31	0.5175658
121	0xbe7f82d3	-0.24952249
122	0x3d9b26e4	0.07575777
123	0x3f05c108	0.5224767
124	0xbd9edbbb	-0.07756754
125	0xbe3e0aec	-0.18558854
126	0x3d89639a	0.067084506
127	0x3c8a1be8	0.01685901
128	0xbd33838c	-0.043826625
129	0x3e9503d7	0.29104492
130	0xbca0fd48	-0.019652024
131	0xbd963c28	-0.07335693
132	0x3e474a13	0.19461851
133	0xbe9d7628	-0.3075421
134	0xbee0aff0	-0.4388423
135	0x3e8923a1	0.26784995
136	0xbeb941c2	-0.36182982
137	0xbf204a66	-0.62613523
138	0x3eb071ac	0.34461725
139	0xbe551fb5	-0.20812877
140	0xbf64696d	-0.89223367
141	0x3ebfa294	0.37428725
142	0x3c55b099	0.013042592
143	0xbf55bff3	-0.83496016
144	0xbd8c8edb	-0.06863185
145	0xbde9dacf	-0.114186876
146	0xbf156803	-0.58361834
147	0x3cf3b7e5	0.029750774
148	0xbe169055	-0.14703496
149	0xbf29f489	-0.66388756
150	0x3e0ab8f1	0.13547112
151	0xbe2a7e33	-0.16649704
152	0xbf021dd8	-0.5082679
153	0xbe37577d	-0.17904468
154	0xbf1a2e49	-0.60226876
155	0xbf1c75eb	-0.6111743
156	0xbe8bfd22	-0.27341563
157	0xbf30006c	-0.68750644
158	0xbf04ac9e	-0.5182589
159	0xbe0711d6	-0.13190398
160	0xbee00cea	-0.43759853
161	0xbed5ec50	-0.41781855
162	0x3dbf36a6	0.09336595
163	0xbdafe9ed	-0.0858954
164	0xbe30c237	-0.17261587
165	0xbc676e33	-0.014125395
166	0xbde9159a	-0.11381073
167	0xbde01cb0	-0.10942972
168	0xbd888cbc	-0.06667468
169	0xbe581d3f	-0.21104906
170	0xbe87153b	-0.26383385
171	0xbe1f2df0	-0.15544868
172	0xbeb2c706	-0.34917468
173	0xbe9f31a7	-0.3109257
174	0xbdead17b	-0.114657365
175	0xbe4b8885	-0.19876297
176	0xbeec2b3e	-0.4612674
177	0x3e123b0e	0.1428034
178	0x3ddd08a7	0.10792666
179	0xbe142e26	-0.14470729
180	0x3ebfd778	0.37469077
181	0xbe631391	-0.22175433
182	0x3e9a2f8b	0.30114397
183	0x3ebb7aec	0.3661722
184	0xbe7186bb	-0.23586552
185	0xbe959477	-0.29214832
186	0x3f0fa96d	0.561179
187	0xbdf1ee3c	-0.11813018
188	0xbe6fb7fc	-0.23410028
189	0xbe9268f7	-0.28595707
190	0xbede8e89	-0.4346812
191	0xbf272595	-0.6529172
192	0xbe814b44	-0.25252736
193	0xbf1905e6	-0.59774625
194	0xbf14e6b0	-0.581645
195	0xbe484484	-0.19557387
196	0xbf28ea5d	-0.6598261
197	0xbf2e7075	-0.68140346
198	0x3ee9fb5c	0.45699584
199	0x3ebd0d2b	0.3692411
200	0xbe46b2a0	-0.19404078
201	0x3edb2679	0.4280279
202	0x3eae6759	0.34063223
203	0xbe4bf06c	-0.19915932
204	0x3eb35751	0.35027555
205	0x3e889db4	0.26682818
206	0xbe483161	-0.19550087
207	0xbb201a96	-0.002442991
208	0x3df71e62	0.12066342
209	0x3e2a27f0	0.16616797
210	0xbc23fe05	-0.010009293
211	0x3e76a580	0.2408657
212	0x3d43d2ce	0.04780846
213	0x3d1d1204	0.03834726
214	0x3e1cafc0	0.15301418
215	0xbdf20bd9	-0.11818666
216	0x3ee5a391	0.44851354
217	0x3f1415f7	0.57846016
218	0x3ee044b6	0.43802422
219	0x3ec08a85	0.37605682
220	0x3eff95ae	0.49918884
221	0x3ee9c05c	0.4565457
222	0x3ed1a515	0.4094626
223	0x3ed0f090	0.40808535
224	0x3eee9ee3	0.46605596
225	0x3db7cc42	0.08974506
226	0xbdf91339	-0.121618696
227	0x3e0a85f5	0.13527663
228	0x3e8f7f39	0.2802675
229	0x3e13e8ad	0.14444228
230	0xbde0406e	-0.10949789
231	0x3ecf9ae9	0.40547875
232	0x3e0ef3d5	0.13960202
233	0xbd057b35	-0.032588203
234	0x3ea4d39f	0.32192704
235	0xbe8397a5	-0.25701633
236	0xbefe22d2	-0.4963594
237	0x3e7579a0	0.23972178
238	0xbe0e2d24	-0.13884407
239	0xbf5c057d	-0.85945874
240	0x3e8c4219	0.27394179
241	0xbdb1f6e0	-0.08689666
242	0xbf103e03	-0.5634462
243	0xbdd20f8f	-0.10256874
244	0xbea62f6c	-0.32458055
245	0xbeb94a06	-0.36189288
246	0x3defb549	0.11704499
247	0xbf06ad20	-0.5260792
248	0xbf188e68	-0.59592295
249	0x3e96d6c5	0.2946073
250	0xbeaeaf26	-0.34118003
251	0xbf3570c6	-0.70875204
252	0x3dedead8	0.116170585
253	0xbe0c880c	-0.13723773
254	0xbf338a84	-0.70133233
255	0xbc8739fc	-0.016507141

cnn.net.8.bias f4 [64]
0	0xbe066194	-0.1312316
1	0xbe40bcad	-0.18821974
2	0x3e82c06e	0.25537437
3	0xbebc1912	-0.36737877
4	0xbe884fcb	-0.26623377
5	0x3e09c3f3	0.13453655
6	0xbd7f8795	-0.06238516
7	0x3d85128b	0.064976774
8	0xbe6777c7	-0.22604285
9	0x3edc7847	0.43060514
10	0xbe9dc982	-0.308178
11	0xbe2bddca	-0.16783825
12	0xbde8c1f6	-0.1136512
13	0xbc12ff87	-0.008972055
14	0xbd9b4343	-0.075811885
15	0xbe403be0	-0.1877284
16	0xbe8fcd06	-0.28086108
17	0xbe850d55	-0.25986734
18	0xbdb4b39d	-0.08823321
19	0xbe5cfffd	-0.21582027
20	0xbe88c023	-0.2670909
21	0xbe94328f	-0.28944823
22	0xbe089db5	-0.1334141
23	0xbd7da39d	-0.061923612
24	0x3d2fe180	0.042939663
25	0x3eddc043	0.43310747
26	0x3cddfb32	0.027097318
27	0xbe31aaa7	-0.17350255
28	0xbd8e0f9e	-0.069365725
29	0xbe2c1377	-0.168043
30	0xbd86529f	-0.065587275
31	0xbe019c7e	-0.12657353
32	0xbc10c94c	-0.008837055
33	0xbd575487	-0.052570846
34	0xbd16c941	-0.036813024
35	0xbdd221c8	-0.102603495
36	0xbe9fa655	-0.3118159
37	0xbdc79f15	-0.09747139
38	0x3e0db550	0.13838696
39	0xbe481ddc	-0.1954264
40	0xbd16248b	-0.036655944
41	0xbe9bc236	-0.3042161
42	0xbcb49429	-0.022043305
43	0xbd9d5411	-0.0768205
44	0x3e702ec5	0.23455341
45	0xbe8f9ca4	-0.28049195
46	0xbda92402	-0.08258821
47	0xbe2457d3	-0.16049127
48	0xbed26615	-0.41093507
49	0xbe83f58d	-0.25773278
50	0xbe604bb6	-0.21903881
51	0xbd5002c4	-0.050783888
52	0xbe07f67a	-0.13277617
53	0xbec8c705	-0.3921434
54	0xbaa74f03	-0.0012764636
55	0xbe5727a4	-0.21011215
56	0xbe6c4154	-0.23071796
57	0xbea8bf04	-0.32958233
58	0xbe9b2963	-0.30305013
59	0xbcdca1a0	-0.026932538
60	0xbccaa30f	-0.024735956
61	0x3d028050	0.03186065
62	0xbd5fecca	-0.05466918
63	0xbd789c19	-0.06069574

lstm.weight_ih_l0 f4 [512, 64]
0	0x3ea19c8b	0.31564745
1	0xbe632eea	-0.22185865
2	0x3e333ae5	0.17502935
3	0xbd936861	-0.07197643
4	0xbe1a6358	-0.15076959
5	0xbf129645	-0.57260543
6	0x3d914c64	0.070946485
7	0xbe12a83c	-0.14321989
8	0xbf156cf3	-0.5836937
9	0xbee59699	-0.4484146
10	0xbed5f95e	-0.41791815
11	0xbeab9c82	-0.33517843
12	0xbe4d0efb	-0.20025246
13	0x3e5203f1	0.20509316
14	0xbd17543b	-0.036945563
15	0xbf291879	-0.6605297
16	0xbeadba09	-0.33930996
17	0xbebc2e4b	-0.3675407
18	0xbe42b31b	-0.19013636
19	0xbeb75472	-0.35806614
20	0xbe94d132	-0.29065853
21	0x3e10240d	0.14076252
22	0xbe5dbfa0	-0.2165513
23	0xbd95f15c	-0.07321426
24	0x3c915a6b	0.01774331
25	0xbefd9ddc	-0.495345
26	0xbed53c09	-0.41647366
27	0xbeb9ac80	-0.3626442
28	0xbc8b7e0e	-0.017027881
29	0xbe7c122f	-0.24616311
30	0x3db0c623	0.086315416
31	0xbf2530a7	-0.6452736
32	0x3d2a4c9a	0.04157696
33	0xbdb44b63	-0.088034414
34	0xbda92dd7	-0.082606964
35	0xbe160832	-0.14651564
36	0xbe930f83	-0.28722772
37	0x3c930a83	0.017949348
38	0xbf183b62	-0.5946561
39	0xbe879063	-0.26477346
40	0x3cce17e0	0.025157869
41	0xbe592798	-0.2120651
42	0x3bd43d2f	0.00647702
43	0xbf0dca56	-0.55386865
44	0xbea6de34	-0.32591403
45	0xbdb61169	-0.088900395
46	0xbe516859	-0.20449962
47	0xbe5ce322	-0.2157102
48	0xbeb25a00	-0.3483429
49	0xbeb1b329	-0.34707
50	0xbf16f4c5	-0.5896724
51	0xbf056031	-0.520999
52	0xbf030578	-0.5118022
53	0xbd11d995	-0.035607893
54	0x3ccb8bc9	0.024846928
55	0xbdb6d342	-0.08927013
56	0xbe18266a	-0.14858404
57	0xbeaeed9b	-0.34165654
58	0xbc532f8f	-0.012889757
59	0xbcb648ff	-0.022251604
60	0xbed031a8	-0.40662885
61	0xbee81ed7	-0.4533603
62	0x3d8cd58f	0.068766706
63	0xbd69567e	-0.05696725
64	0x3dc0d5f1	0.09415806
65	0x3d841363	0.0644901
66	0x3e9b0632	0.30278164
67	0xbe895d80	-0.26829147
68	0xbb741b09	-0.003724756
69	0xbebe2420	-0.37136936
70	0x3cb0da65	0.021588514
71	0xbae5bec5	-0.0017528167
72	0x3ece1f12	0.4025808
73	0x3d3608ae	0.04444187
74	0x3f2ce283	0.6753313
75	0xbe6651b2	-0.22492102
76	0xbe8c6a61	-0.2742491
77	0x3dbdfa21	0.09276224
78	0xbdbf0428	-0.093269646
79	0xbe29794a	-0.16550174
80	0xbe7c2370	-0.24622893
81	0xbeda7903	-0.4267045
82	0x3db31501	0.087442406
83	0xbe932de3	-0.28745946
84	0x3d28db76	0.04122492
85	0xbee6ff38	-0.4511659
86	0xbeda4494	-0.42630446
87	0xbd664489	-0.056217704
88	0x3e46cd49	0.19414248
89	0x3dfdea6e	0.123982295
90	0xbd71ee8b	-0.059065383
91	0xbd700afe	-0.058604233
92	0x3c296047	0.010337896
93	0x3f09ed8f	0.5387811
94	0x3d77a433	0.060459327
95	0x3e2df4fe	0.16987988
96	0xbd61944c	-0.055073068
97	0x3d945530	0.07242811
98	0xbd76df13	-0.060271334
99	0xbe9d0b5c	-0.3067273
100	0x3e9b1914	0.3029257
101	0xbca2f66d	-0.019892896
102	0xbf21db2e	-0.63225067
103	0xbe0387a3	-0.1284471
104	0xbd7ac8aa	-0.061226524
105	0x3d7d17dd	0.061790336
106	0xbd2d2091	-0.042267386
107	0xbe9fefe6	-0.31237715
108	0xbec0014e	-0.37500995
109	0xbdbf92ff	-0.09354209
110	0xbf051a57	-0.51993316
111	0x3d310cdb	0.04322515
112	0xbe06eaf1	-0.1317556
113	0xbef17732	-0.4716125
114	0x3ecde31a	0.40212327
115	0xbea71d9f	-0.32639787
116	0x3e9062b1	0.28200296
117	0xbe7c99f5	-0.24668105
118	0x3b84e8ef	0.004056088
119	0xbdc70c06	-0.0971909
120	0xbda1efb2	-0.079070464
121	0x3ed987bd	0.42486373
122	0xbe056cf0	-0.13029838
123	0xbcb80af1	-0.022466155
124	0xbe10fe9b	-0.14159624
125	0xbed1c684	-0.40971768
126	0x3d3cbf30	0.046080768
127	0xbb95728e	-0.004560775
128	0x3e735211	0.23761775
129	0xbe227e20	-0.15868425
130	0x3de9eb09	0.114217825
131	0xbd070566	-0.032964133
132	0x3bcf1e27	0.006320733
133	0xbe2ca2c4	-0.16858965
134	0x3da1f5b6	0.07908194
135	0x3d3747d9	0.044746254
136	0xbf29c193	-0.66310996
137	0xbf10ee02	-0.5661317
138	0xbf6b3763	-0.9188139
139	0xbcbb98b3	-0.022899961
140	0x3e829f6a	0.25512248
141	0x3d9313a7	0.07181483
142	0xbcefd686	-0.029277097
143	0xbeb13e4a	-0.34617835
144	0x3dee2e6f	0.1162995
145	0x3c699aba	0.014258081
146	0xbef6ef7a	-0.4822958
147	0xbe07cce0	-0.13261747
148	0x3e7d01bd	0.24707694
149	0x3e3c4865	0.18386991
150	0x3e8df082	0.27722555
151	0x3d20df89	0.03927568
152	0xbb0e5480	-0.0021717846
153	0xbf15950c	-0.5843055
154	0xbe21e29f	-0.15809105
155	0x3e0f3f66	0.13989028
156	0xbcecf26d	-0.028924191
157	0xbede5969	-0.4342759
158	0xbd28b153	-0.041184735
159	0xbe58eaf1	-0.21183373
160	0xbb7dc911	-0.0038724581
161	0xbe90861e	-0.28227323
162	0xbd3f88f6	-0.046761476
163	0x3ea41ebe	0.32054704
164	0xbe61decf	-0.22057651
165	0x3d729afd	0.05922984
166	0xbdc60175	-0.09668247
167	0x3c65a5e4	0.014016602
168	0xbbcfbf4f	-0.0063399444
169	0x3e0a5381	0.13508417
170	0xbd4eee15	-0.05052002
171	0x3d6787dc	0.05652605
172	0xbe4f0a92	-0.20218876
173	0xbcc0b686	-0.023524534
174	0x3d3e56c8	0.04646948
175	0xbdd853ab	-0.105628334
176	0xbecdde9a	-0.40208894
177	0x3b8e5a77	0.0043442803
178	0xbec4e7df	-0.38458154
179	0xbf52085a	-0.82043993
180	0xbf347ba5	-0.70501167
181	0x3ec44dcc	0.38340604
182	0xbdcef3f0	-0.10105121
183	0x3dcb32c2	0.09921791
184	0x3e984846	0.2974264
185	0xbf25a861	-0.6471005
186	0x3da5724d	0.08078442
187	0x3d0f4ad8	0.034983486
188	0xbe82d880	-0.255558
189	0xbd0f4f9b	-0.034988027
190	0x3d5fa870	0.054603994
191	0xbd8f54fb	-0.069986306
192	0xbf355221	-0.70828444
193	0xbdad4748	-0.084608614
194	0x3c409ae9	0.011755683
195	0x3ec5e614	0.38652098
196	0xbe84fc10	-0.25973558
197	0x3d9e836d	0.07739911
198	0x3daf510c	0.0856038
199	0xbf0013a6	-0.5002998
200	0x3f808f4e	1.0043733
201	0x3d39e43d	0.04538368
202	0x3f3aa39e	0.7290591
203	0x3cfa30bf	0.030540822
204	0xbe7d7a02	-0.24753574
205	0xbcf5b831	-0.029995056
206	0x3d9e89af	0.07741105
207	0x3cfa25a3	0.030535525
208	0xbe68b7d2	-0.22726372
209	0xbe0564b7	-0.13026701
210	0x3eaf0e38	0.34190536
211	0x3e847edb	0.25878033
212	0xbeb39bfc	-0.35079944
213	0x3ec4e60c	0.38456762
214	0xbe0f13a0	-0.1397233
215	0x3d29acfe	0.041424744
216	0x3e27c3d0	0.1638329
217	0x3edb164d	0.42790452
218	0x3f341030	0.703372
219	0x3d11de36	0.035612307
220	0xbd87aff3	-0.066253565
221	0x3f9cdfd5	1.2255808
222	0xbd6c9381	-0.05775786
223	0x3f3ad919	0.72987515
224	0x3d590552	0.05298359
225	0x3ecdb70d	0.4017872
226	0x3d8d5380	0.06900692
227	0xbf23d1d1	-0.6399203
228	0x3e997627	0.29972956
229	0x39342636	0.00017180372
230	0x3f82d7e4	1.0222135
231	0x3bcd19ab	0.0062591634
232	0xbdeba488	-0.11505991
233	0x3e4ccc29	0.19999756
234	0xbd7859ee	-0.06063264
235	0xbea4a9b5	-0.32160726
236	0x3d2cfdf8	0.04223439
237	0xbe8fa2d4	-0.28053916
238	0xbef76c7c	-0.48324955
239	0x3e51e66b	0.20498054
240	0x3e7efb7a	0.24900618
241	0xbe8ce922	-0.27521616
242	0x3eda80dc	0.42676437
243	0x3ee8505d	0.45373812
244	0x3f37ce24	0.7179892
245	0xbf1aae0a	-0.6042181
246	0xbdbc7275	-0.092015184
247	0x3c074403	0.008255961
248	0xbea32f9d	-0.31872264
249	0x3f0092d5	0.5022405
250	0xbe5ce8a2	-0.21573117
251	0x3da1c625	0.07899121
252	0xbe76ed13	-0.24113874
253	0x3ec3aea5	0.3821918
254	0x3dca6dfb	0.09884258
255	0x3da7a0f7	0.081849985

lstm.weight_hh_l0 f4 [512, 128]
0	0x3e5439b9	0.20725144
1	0x3e879687	0.2648203
2	0x3de26143	0.110537075
3	0xbe5f2084	-0.21789747
4	0xbef6a098	-0.48169398
5	0x3eaf785e	0.3427152
6	0xbe17cd08	-0.14824307
7	0xbf0d2f83	-0.5515062
8	0x3d6f3c59	0.05840716
9	0xbe633658	-0.22188699
10	0x3e5760f0	0.21033072
11	0xbe7a6446	-0.24452314
12	0xbe93670c	-0.28789556
13	0x3eafc471	0.3432956
14	0xbc7e1c76	-0.015509715
15	0xbeca0793	-0.39458904
16	0xbf50e55c	-0.81599975
17	0x3eaa8d90	0.3331113
18	0x3dd7204c	0.10504207
19	0xbe73203d	-0.23742767
20	0xbe2a16bf	-0.1661024
21	0x3f14153d	0.5784491
22	0x3dd880d9	0.10571451
23	0x3ec085ac	0.37601984
24	0xbdbea9ed	-0.093097545
25	0x3ec7a37b	0.38991913
26	0xbec98b7a	-0.39364225
27	0x3b2fa1b3	0.002679926
28	0xbe7f6fa3	-0.2494493
29	0xbd225aa4	-0.039637223
30	0x3d3ba8d3	0.0458153
31	0xbe23d069	-0.15997471
32	0x3ed40bcf	0.4141526
33	0xbbdb8650	-0.006699361
34	0xbe76067d	-0.24025913
35	0xbf23686d	-0.63831216
36	0xbe617093	-0.220156
37	0x3d39c810	0.04535681
38	0x3e38258f	0.17983077
39	0xbdd89cf9	-0.10576815
40	0xbf151ea0	-0.58249855
41	0x3ee79f05	0.4523851
42	0x3ded1b2c	0.11577448
43	0xbdabc9ca	-0.083880976
44	0xbe8770eb	-0.26453337
45	0x3e00f120	0.12591982
46	0x3e57c44d	0.21070977
47	0x3df65a74	0.12028971
48	0xbe36654e	-0.17812082
49	0xbead1a96	-0.33809346
50	0x3dc1d270	0.09463966
51	0x3e427b43	0.18992333
52	0xbe2d309e	-0.16913077
53	0x3ebae3b0	0.36501837
54	0xbe65613c	-0.22400373
55	0x3d92df56	0.07171504
56	0xbf62c3d8	-0.88580084
57	0xbecf207e	-0.40454477
58	0xbf1c7183	-0.61110705
59	0x3ea843e8	0.32864308
60	0xbe8ddba3	-0.27706632
61	0xbec82690	-0.3909192
62	0x3e0635bc	0.13106436
63	0x3db3c065	0.08776931
64	0xbc13276b	-0.008981566
65	0x3ec8f987	0.39252874
66	0xbdbb8cbe	-0.09157704
67	0x3e971fc4	0.29516423
68	0xbeb53129	-0.3538907
69	0x3e480ada	0.1953539
70	0x3ee7e819	0.45294264
71	0x3c948238	0.0181285
72	0xbd893324	-0.066992074
73	0xbe9528c5	-0.29132667
74	0x3e9d5386	0.30727786
75	0x3e669e61	0.22521354
76	0x3df974ca	0.12180479
77	0x3cd8f0a5	0.026481936
78	0xbeb0ad27	-0.34507105
79	0xbeecf66a	-0.4628175
80	0xbec3564a	-0.3815177
81	0x3f03ce21	0.514864
82	0x3dfae6f5	0.12251083
83	0xbec7bb43	-0.39010057
84	0xbe90aee8	-0.28258443
85	0x3eacd3a6	0.33755225
86	0xbea5d610	-0.3238988
87	0xbe7a6389	-0.24452032
88	0xbeae5a4e	-0.34053272
89	0xbedb3373	-0.4281269
90	0xbea8bcae	-0.3295645
91	0xbeb84584	-0.35990536
92	0xbde96245	-0.113956966
93	0xbefd4768	-0.4946854
94	0x3f0c91f6	0.5491022
95	0xbceb2b45	-0.028707156
96	0xbdde0946	-0.108416125
97	0x3e3fc5b0	0.18727756
98	0xbed2180e	-0.41033977
99	0x3d82c6fa	0.06385608
100	0x3eb664fb	0.35623917
101	0xbda1a4d0	-0.078927636
102	0xbe358ef2	-0.1773031
103	0xbec382d1	-0.38185742
104	0x3efb0b82	0.49032217
105	0x3ecdacb2	0.4017082
106	0xbe1e251a	-0.1544384
107	0xbe5f507a	-0.21808043
108	0x3eecac4e	0.46225208
109	0x3f0de2de	0.55424297
110	0xbe2f090a	-0.17093292
111	0x3e10cfb6	0.14141735
112	0xbeb700d2	-0.35742813
113	0x3d263895	0.040581305
114	0xbc6948e1	-0.014238567
115	0xbe35ea04	-0.17765051
116	0xbe016fbd	-0.12640281
117	0x3e5fb9a9	0.21848167
118	0x3dc95dcd	0.09832344
119	0xbd0b72a1	-0.034044866
120	0x3e900046	0.2812521
121	0xbd0af3cf	-0.03392392
122	0x3e1b8e93	0.15191106
123	0x3ec79931	0.38984063
124	0x3f25a255	0.64700824
125	0x3efa48df	0.4888372
126	0xbebc0a8c	-0.36726797
127	0x3e941933	0.28925475
128	0x3e412006	0.18859872
129	0x3f02b703	0.51060504
130	0xbda4b752	-0.08042778
131	0x3e6f55c6	0.23372564
132	0xbed8454d	-0.42240372
133	0x3f07bcd8	0.5302253
134	0xbf47c03c	-0.780277
135	0xbf19f2e9	-0.60136276
136	0xbe0600ab	-0.13086192
137	0x3eae8c44	0.3409139
138	0x3f0878da	0.53309405
139	0xbf3ed46d	-0.74542886
140	0xbf27c80d	-0.6553963
141	0x3eb65a17	0.35615608
142	0xbebd09ba	-0.36921483
143	0xbe71bdb5	-0.23607524
144	0xbd3c1a6c	-0.045923635
145	0x3f0a8b43	0.54118747
146	0x3d48ddcd	0.04903965
147	0xbe19639b	-0.14979403
148	0x3e1eb28b	0.15497796
149	0x3f1cc14a	0.61232436
150	0x3e0f52e4	0.13996464
151	0x3ed55080	0.4166298
152	0xbf2722cd	-0.65287477
153	0x3eaa894e	0.3330788
154	0xbd298f3e	-0.041396372
155	0x3eb955b6	0.36198205
156	0xbe55c943	-0.20877557
157	0x3e3094d1	0.17244269
158	0x3f069b13	0.52580374
159	0xbe5865f5	-0.21132644
160	0xbdc9863d	-0.09840057
161	0xbd7aa1cd	-0.06118946
162	0xbe9e1e2a	-0.30882388
163	0x3e205472	0.15657213
164	0x3c385b59	0.011252248
165	0xbda8b2c8	-0.08237225
166	0xbd330e46	-0.043714784
167	0xbd9b5d73	-0.075861834
168	0xbdd0d8d2	-0.10197605
169	0x3ee911b3	0.45521316
170	0x3e66d3d8	0.2254175
171	0x3f171590	0.59017277
172	0x3f0f827a	0.56058466
173	0x3e235bfe	0.15953061
174	0x3e316e5a	0.17327252
175	0xbefa6d4a	-0.48911506
176	0xbdf9b801	-0.12193299
177	0xbef6370f	-0.4808888
178	0x3e8ca41b	0.27468953
179	0xbf100fee	-0.56274307
180	0xbf3c13ac	-0.73467517
181	0x3f25651b	0.646074
182	0x3e25db26	0.1619688
183	0xbe843be5	-0.25826946
184	0x3c9613ed	0.018320048
185	0xbf321e81	-0.69577795
186	0xbec30239	-0.38087633
187	0x3e287a02	0.16452792
188	0xbf41422f	-0.75491613
189	0xbc74ea56	-0.014948448
190	0x3e6ac46f	0.22926496
191	0xbe3b8e85	-0.18316086
192	0xbe770934	-0.24124604
193	0x3f24ea11	0.64419657
194	0x3e913d93	0.2836729
195	0x3eb4d4c5	0.3531858
196	0xbe6b3c67	-0.2297226
197	0xbd1f1a32	-0.03884334
198	0xbd7da17d	-0.061921585
199	0x3e883adc	0.26607406
200	0xbf06eaaf	-0.5270185
201	0xbe7d37c4	-0.24728304
202	0xbed4eb4f	-0.41585776
203	0x3e805527	0.25064966
204	0xbdb62df3	-0.08895483
205	0x3d4b1c57	0.049587574
206	0xbd97836f	-0.07398116
207	0xbf150399	-0.58208615
208	0x3e21f06b	0.15814368
209	0x3e6d70aa	0.23187509
210	0xbd85167e	-0.06498431
211	0xbf3c248d	-0.7349327
212	0xbe95f457	-0.2928798
213	0x3eb7e6d1	0.35918286
214	0xbe7956c3	-0.24349503
215	0x3de40e23	0.11135509
216	0xbf24c2d7	-0.643598
217	0xbe825fbf	-0.25463673
218	0xbef026ff	-0.46904752
219	0x3d434c5a	0.047680236
220	0xbdd96747	-0.10615402
221	0xbcbfa114	-0.023392238
222	0xbda44779	-0.08021445
223	0x3d3b61e8	0.045747668
224	0xbe8b8acf	-0.2725434
225	0x3e6386ec	0.22219437
226	0xbf531c3f	-0.82464975
227	0x3c82866f	0.015933244
228	0x3ef84d8c	0.48496664
229	0xbd40c0b0	-0.04705876
230	0x3db6a79b	0.08918687
231	0xbf1f6c78	-0.62274885
232	0x3d8877f8	0.06663507
233	0xbd805c3f	-0.062675945
234	0xbf08a4f3	-0.5337669
235	0xbe963094	-0.29333937
236	0xbebdef19	-0.3709648
237	0x3ec8ebac	0.39242303
238	0xbebc4552	-0.36771637
239	0x3c283f67	0.010269023
240	0xbd8aa2b9	-0.06769318
241	0x3ea541b3	0.32276687
242	0xbca11df5	-0.019667605
243	0xbeeaa681	-0.45830157
244	0xbdac44ea	-0.08411582
245	0xbdfd0794	-0.12354961
246	0x3f0cb198	0.54958487
247	0x3e13c0db	0.14429037
248	0x3ead0168	0.33790135
249	0xbe4c159b	-0.19930117
250	0xbdff1f8f	-0.12457191
251	0x3d53eec4	0.051741377
252	0x3e9412cd	0.28920594
253	0x3e91085a	0.28326684
254	0xbeefa833	-0.46808013
255	0x3ec67e72	0.38768345

lstm.bias_ih_l0 f4 [512]
0	0xbe646f3c	-0.22308058
1	0xbe33eaf3	-0.17570095
2	0x3d82cfbc	0.063872784
3	0xbe565cbd	-0.20933814
4	0xbec2a0ca	-0.38013297
5	0xbe86b6d5	-0.26311365
6	0x3e5713e1	0.21003677
7	0xbe76d5b1	-0.24104954
8	0xbe819ae4	-0.25313485
9	0xbe256cf2	-0.1615484
10	0xbe7e4ead	-0.248347
11	0xbe3e61db	-0.18592016
12	0xbe201de2	-0.156364
13	0xbebf151a	-0.37320787
14	0xbe650919	-0.22366752
15	0xbeb16bc5	-0.34652534
16	0xbe8d3687	-0.27580664
17	0x3e3cbeae	0.18432114
18	0xbecf6588	-0.4050715
19	0xbe48e6bb	-0.19619267
20	0x3da11d27	0.078668885
21	0xbe37df1c	-0.17956203
22	0xbd1376d4	-0.036001995
23	0xbe69a772	-0.22817782
24	0x3e3a36d4	0.18184978
25	0xbe6286b8	-0.22121704
26	0x3c55b278	0.013043039
27	0x3c18f6b3	0.009336161
28	0xbe613acd	-0.21995087
29	0xbe17a80a	-0.14810196
30	0xbe93efae	-0.288938
31	0xbeca0ee8	-0.39464498
32	0xbe229b24	-0.15879494
33	0xbe0a914f	-0.13531993
34	0xbe500ac9	-0.20316614
35	0x3d1903a3	0.037356984
36	0xbe5d8149	-0.2163135
37	0xbe5c0e35	-0.21489795
38	0xbe03db10	-0.12876534
39	0x3e550319	0.20801963
40	0xbf017147	-0.5056347
41	0x3e64b86b	0.22335975
42	0xbe9feb20	-0.31234074
43	0xbe20fd79	-0.15721692
44	0xbe4dd8bc	-0.20102209
45	0xbe269146	-0.16266355
46	0x3e37e483	0.17958264
47	0x3e470185	0.19434173
48	0xbe2e81a0	-0.17041636
49	0xbea8c237	-0.32960674
50	0xbe25ac05	-0.16178901
51	0xbce1995b	-0.027538946
52	0xbe105b7d	-0.140974
53	0x3d97637b	0.07392021
54	0x3e30e511	0.17274882
55	0xbdd38d9a	-0.10329743
56	0xbcb60b26	-0.022222113
57	0xbe521c42	-0.20518592
58	0xbe44ffd7	-0.1923822
59	0xbed5f181	-0.41785815
60	0x3e473458	0.19453561
61	0x3d0b4869	0.034004603
62	0xbf3c93e5	-0.7366317
63	0xbd8cd9aa	-0.068774536
64	0x3daffa5b	0.085926734
65	0x3eb7f6e6	0.35930556
66	0xbe6d4c1c	-0.23173565
67	0xbe30553e	-0.17220017
68	0xbd100802	-0.035163887
69	0xbec7952e	-0.38981003
70	0xbdd94846	-0.10609488
71	0xbeaa2ee3	-0.33238897
72	0xbe74d6af	-0.2391002
73	0x3cac4fcd	0.021034146
74	0xbe01321f	-0.12616776
75	0xbd613c96	-0.05498942
76	0xbee56b27	-0.44808313
77	0xbdfd86df	-0.1237924
78	0xbd667355	-0.056262333
79	0xbd8c140f	-0.068397634
80	0xbe363e05	-0.17797096
81	0xbe7b0635	-0.24514087
82	0xbe04d78c	-0.1297285
83	0x3e6ed678	0.23324001
84	0xbe5e8d65	-0.21733625
85	0xbe9f5dae	-0.3112616
86	0xbd8fdd00	-0.07024574
87	0x3ce0f1ef	0.027459113
88	0x3e4ddcf8	0.20103824
89	0xbe8704cc	-0.26370847
90	0xbeb2a4ed	-0.34891453
91	0x3c9e24bb	0.019304624
92	0xbec871b2	-0.39149243
93	0xbc8fd370	-0.017556876
94	0xbe495272	-0.19660357
95	0xbdcbd8cd	-0.09953461
96	0xbe234008	-0.15942395
97	0xbd178fe4	-0.03700246
98	0x3e101eeb	0.14074294
99	0xbebf16fe	-0.3732223
100	0xbe47cee8	-0.19512522
101	0xbdbbd086	-0.09170632
102	0x3de67bda	0.112540916
103	0xbe90653d	-0.2820224
104	0xbe7dd4c6	-0.24788198
105	0xbe9b8bd3	-0.30380115
106	0xbd83e208	-0.064395964
107	0xbe6a43ef	-0.22877477
108	0xbea00cb4	-0.31259692
109	0xbec7b3a4	-0.39004242
110	0xbefde82e	-0.49591202
111	0x3e5dd9b9	0.21665086
112	0xbe61c690	-0.22048402
113	0xbec75f26	-0.3893978
114	0xbd8af31b	-0.0678465
115	0x3e046b12	0.12931469
116	0x3dbd59bc	0.09245631
117	0xbdf1a1a8	-0.117984116
118	0xbec36feb	-0.38171324
119	0xbdf2881e	-0.118423685
120	0xbe94002d	-0.28906384
121	0xbe3fecb0	-0.18742633
122	0xbd5e64c0	-0.0542953
123	0x3d8da4ae	0.06916176
124	0xbe1afeb4	-0.15136224
125	0xbeb7cbd3	-0.35897693
126	0x3c476db0	0.012172148
127	0xbdbc301c	-0.09188864
128	0x3d92438a	0.07141788
129	0xbd44d88e	-0.048058085
130	0xbee127f8	-0.43975806
131	0x3e0f2eed	0.13982745
132	0x3ea2039a	0.31643373
133	0xbe8d952c	-0.27652872
134	0xbde30cf9	-0.11086459
135	0x3dbb04e1	0.0913179
136	0xbc172d55	-0.009227117
137	0xbe59387a	-0.2121295
138	0xbeb2e8fe	-0.34943384
139	0x3d0853aa	0.033282913
140	0xbe184324	-0.14869362
141	0x3d60379c	0.054740533
142	0xbe53811d	-0.20654722
143	0xbeac7127	-0.33680078
144	0xbe8b87a0	-0.2725191
145	0xbc998257	-0.018738909
146	0xbe71892c	-0.23587483
147	0xbf07ad6a	-0.52998984
148	0xbea36f84	-0.31921017
149	0xbec6dc46	-0.3883993
150	0xbe6d8f3f	-0.23199175
151	0xbea4891e	-0.32135862
152	0xbe74ec18	-0.23918188
153	0xbea3ca66	-0.31990355
154	0xbe6605cc	-0.22463149
155	0xbe005d24	-0.1253553
156	0x3e98c8f9	0.2984083
157	0xbd4b422b	-0.04962365
158	0x3e82d290	0.2555127
159	0xbef6b8b6	-0.48187798
160	0xbebc8ed4	-0.3682772
161	0xbd5d4589	-0.054021392
162	0xbe6c2623	-0.23061423
163	0x3e78a7a9	0.24282707
164	0xbebacfbc	-0.36486614
165	0x3dcacb3b	0.099020444
166	0xbf3b456e	-0.73152816
167	0xbf4ed6df	-0.8079662
168	0xbe89a746	-0.26885432
169	0x3ee7eb0e	0.4529652
170	0x3d630e26	0.055433415
171	0x3e608125	0.21924265
172	0xbeae4869	-0.3403962
173	0xbf397814	-0.7244885
174	0xbeb3273c	-0.3499087
175	0xbf3965cb	-0.7242095
176	0xbd9adb03	-0.075613044
177	0xbe30fff3	-0.17285137
178	0xbd91d2dd	-0.07120297
179	0xbe24baaa	-0.16086832
180	0xbedc4b3e	-0.43026155
181	0x3eddb4ea	0.4330209
182	0xbf45bab9	-0.7723804
183	0xbe57fd2d	-0.21092673
184	0xbeb8bd7a	-0.3608206
185	0x3def5e49	0.11687905
186	0xbea41498	-0.32046962
187	0xbe5acc47	-0.21366988
188	0xbda36633	-0.07978477
189	0xbe8fb6cf	-0.2806916
190	0xbe38dbc8	-0.1805259
191	0xbe06960a	-0.13143173
192	0xbee14acf	-0.44002387
193	0xbded9d56	-0.11602275
194	0xbdc7b359	-0.09751005
195	0x3db1c3ab	0.08679899
196	0x3ec2d915	0.38056245
197	0xbe209dee	-0.15685245
198	0x3dc3d15a	0.09561415
199	0xbe53b775	-0.20675452
200	0x3df716ec	0.12064919
201	0xbc88996f	-0.016674725
202	0xbf4a1946	-0.78944814
203	0xbdee60a2	-0.11639525
204	0xbe63b95b	-0.22238676
205	0xbe3a865d	-0.18215318
206	0xbf475110	-0.77858067
207	0xbd86ca90	-0.065816045
208	0xbd845ae6	-0.0646265
209	0xbece4fd9	-0.40295294
210	0x3e8d399e	0.2758302
211	0x3dda2cf9	0.10653109
212	0xbec3f94a	-0.3827613
213	0xbee5e640	-0.4490223
214	0xbeaa1166	-0.332164
215	0xbdb93bc3	-0.09044602
216	0xbd6efa50	-0.058344185
217	0xbeeeffde	-0.46679586
218	0xbe4c89b2	-0.19974402
219	0x3c944430	0.01809892
220	0xbe4c9909	-0.19980253
221	0xbe803427	-0.2503979
222	0xbe8ee930	-0.27912283
223	0x3dd82c8e	0.10555373
224	0xbd9a84b8	-0.07544845
225	0x3d59e0a5	0.053192753
226	0x3f320afe	0.6954802
227	0xbeb911bc	-0.36146343
228	0xbe74f50e	-0.23921606
229	0xbf29ee86	-0.6637958
230	0xbee2072d	-0.441461
231	0xbdad0e92	-0.08450045
232	0xbea8b11c	-0.32947624
233	0xbd4e4c41	-0.05036569
234	0xbf285364	-0.65752244
235	0xbf1c40b1	-0.6103621
236	0xbe37dc51	-0.17955138
237	0xbe7e198d	-0.24814434
238	0x3cd306a9	0.025760012
239	0xbeb3f06b	-0.35144362
240	0xbba1e901	-0.0049411063
241	0xbe2e8573	-0.17043094
242	0xbe244d8b	-0.16045205
243	0xbe3a1dee	-0.1817548
244	0xbe48a9e2	-0.19596055
245	0xbed09dd5	-0.40745416
246	0x3e6017d3	0.21884088
247	0xbeb5e6c7	-0.35527632
248	0xbe8ab95a	-0.27094537
249	0xbde1a584	-0.11017898
250	0xbeaba27c	-0.33522403
251	0xbdd75905	-0.10515026
252	0xbe5e8c74	-0.21733266
253	0xbe8b4cf4	-0.27207148
254	0xbe1a2e2d	-0.15056677
255	0xbd8e82d2	-0.06958546
